textures/trained_models/Noise-NCA/smooth_thin_horizontal_stripes/weights.pt (torch, 25821 bytes, 3 tensors)

w1.weight f4 [96, 48, 1, 1]
0	0x3cafc3a1	0.021455588
1	0x3dcb6892	0.099320546
2	0x3d1b6532	0.037938304
3	0x3c99ab86	0.018758547
4	0xbdf62a36	-0.1201977
5	0x3db84789	0.08998019
6	0xbcf2501b	-0.029579213
7	0x3d905d3f	0.07049035
8	0x3c89a848	0.016803876
9	0x3d4862f7	0.048922505
10	0xbc7140ed	-0.014724952
11	0xbd202aa7	-0.039103176
12	0x3933e6b7	0.00017156718
13	0x3c876d52	0.01653162
14	0x3c79f15e	0.0152553
15	0xbbd2d2d0	-0.006433822
16	0xbd17e5bf	-0.037084337
17	0xbcf4024f	-0.029786257
18	0xbd563759	-0.052298877
19	0xb9b89d88	-0.00035212585
20	0x3cb2f7a8	0.021846607
21	0x3d0e6112	0.034760542
22	0xbd18732d	-0.037219215
23	0x3c6a9955	0.014318784
24	0x3ad0844f	0.0015908572
25	0xbd93b8d3	-0.07212987
26	0xbb0e9e94	-0.0021762
27	0x3c198f35	0.009372522
28	0x3ae59f3e	0.0017518771
29	0x3c33cf3d	0.010974702
30	0x3ca141a1	0.019684615
31	0xba5035df	-0.0007942598
32	0xbd1badea	-0.038007654
33	0x3cc2893e	0.023747083
34	0x3be4d114	0.006982932
35	0x3cd700d0	0.026245505
36	0x3c8f18b8	0.017467842
37	0x3d249be4	0.04018773
38	0x3ce304ba	0.027712215
39	0xbd88e7af	-0.06684815
40	0xbc041c31	-0.008063362
41	0x3c670167	0.014099455
42	0x3c39d384	0.011341933
43	0xbaca3fd5	-0.00154304
44	0x3abefd4d	0.0014571339
45	0xbc64e30a	-0.013970146
46	0x3befabeb	0.0073141954
47	0xbcbdc5a8	-0.023165539
48	0x39519dc4	0.00019990565
49	0xbd1a2c36	-0.03763982
50	0x3cd3e219	0.025864648
51	0xbd7bbb4c	-0.061457917
52	0x3c02cd0d	0.007983458
53	0xbd83e76b	-0.06440624
54	0x39b31e38	0.00034164055
55	0xbd1d2384	-0.03836395
56	0xbc679c22	-0.014136346
57	0x3d0e6aa2	0.03476966
58	0x38ee4678	0.0001136185
59	0xbd8916a6	-0.06693773
60	0xbd6b21e5	-0.05740537
61	0xbd83290c	-0.064043134
62	0xbd58fc41	-0.052974943
63	0x3d8dbe26	0.069210336
64	0xbd063564	-0.03276576
65	0xbd163d83	-0.036679756
66	0x3bacebd5	0.005277137
67	0x3d24eb23	0.040263306
68	0xbda55d62	-0.08074452
69	0xbc82885d	-0.015934164
70	0x3cc6374e	0.024196293
71	0x3c1ec9dd	0.009691683
72	0xbdbbb851	-0.09166015
73	0x3d82f251	0.063938744
74	0x3d11e5d5	0.035619576
75	0x3dac032e	0.08399044
76	0xbc84e743	-0.016223555
77	0x3cfb9f63	0.03071565
78	0xbd0bc718	-0.034125417
79	0x3d31a461	0.043369655
80	0x3c546d2a	0.01296548
81	0xbcf508ef	-0.029911486
82	0x3c4dd875	0.012563814
83	0xbd8ac44c	-0.06775722
84	0x3d6d9b6b	0.058009546
85	0xbad02555	-0.0015880266
86	0xbd2cc155	-0.042176563
87	0xbd8a8bd7	-0.067649536
88	0x3a2ce0ba	0.0006594766
89	0x3d293392	0.041308947
90	0x3c639a73	0.013891804
91	0x3c5c818c	0.013458621
92	0x3ae40464	0.0017396328
93	0x3df3f00c	0.1191102
94	0xbd7d426c	-0.061830923
95	0x3b519732	0.0031980989
96	0xbe1000db	-0.14062826
97	0x3d1574b4	0.03648825
98	0x3c5bea3c	0.013422545
99	0x3dd98560	0.106211424
100	0x3d83ff98	0.06445235
101	0x3c3723b9	0.011177951
102	0x3c14613a	0.009056384
103	0x3d57cbb4	0.0526845
104	0x3df0d22f	0.11758839
105	0xbc88934c	-0.0166718
106	0xbcb32460	-0.02186793
107	0xbd416a58	-0.047220558
108	0x3ca154d8	0.019693777
109	0x3d59352b	0.05302922
110	0x3c8d291f	0.017231522
111	0xbd403240	-0.046922922
112	0xbcca6a32	-0.024708841
113	0xbd06c974	-0.032906964
114	0xbca50e64	-0.020148464
115	0x3d3fe6f4	0.046851113
116	0x3ccb85e8	0.024844125
117	0xbcacc947	-0.02109207
118	0xbcfac1d6	-0.030610006
119	0xbcf7ce48	-0.03024973
120	0x3c58ebe1	0.013239832
121	0xbd78b12c	-0.06071584
122	0xbc39c250	-0.011337832
123	0xbd5f164b	-0.05446462
124	0x3cd5d695	0.026103297
125	0x3c4421b3	0.011970925
126	0x3cf6d8eb	0.030132731
127	0xbd471e62	-0.04861296
128	0x3cd86854	0.026416935
129	0x3cf3c1db	0.029755523
130	0xbcd98187	-0.026551021
131	0x3c097d07	0.008391625
132	0xbd1cc61d	-0.038274873
133	0x3d189ac9	0.03725699
134	0x3c29b8ce	0.010359002
135	0xbc2c0bdc	-0.010500874
136	0xbc97c506	-0.018526565
137	0xbd2b280d	-0.041786242
138	0xbc778243	-0.01510674
139	0x3c17352b	0.009228985
140	0x3d159190	0.036515772
141	0xbc5d254d	-0.013497663
142	0x3d10020f	0.035158213
143	0xbd11f4b6	-0.035633765
144	0x3d2acfe3	0.041702162
145	0xbb47973e	-0.0030455138
146	0x3d2696b5	0.04067107
147	0x3a9ac453	0.0011807777
148	0x3cc91504	0.024546154
149	0x3d2b1981	0.04177237
150	0x3cc99a64	0.024609752
151	0x3d339ed2	0.043852635
152	0xbd03ca93	-0.03217561
153	0xbd0fa413	-0.035068583
154	0x3ca19d8c	0.019728445
155	0x3d7cf93b	0.061761122
156	0x3c2e7cb6	0.010649851
157	0x3b508eed	0.0031823472
158	0x3b9e115e	0.0048238477
159	0xbce05718	-0.02738528
160	0x3e104b7b	0.14091294
161	0x3c0d0fa1	0.008609683
162	0xbd6bce5f	-0.057569858
163	0xbceb116e	-0.028694835
164	0xbd9915ac	-0.07474837
165	0xbd29db9c	-0.0414692
166	0xbc6ff4fe	-0.014645813
167	0x3b9123eb	0.0044293306
168	0xbcfc9ef1	-0.030837508
169	0x3c682f53	0.014171439
170	0xbd75c1a2	-0.059999116
171	0x3d1d4ed2	0.038405247
172	0xbc4f24fa	-0.012643093
173	0x3c3e6e26	0.011622941
174	0x3c8e0661	0.017337026
175	0xbcd26617	-0.025683446
176	0xbdc22262	-0.09479214
177	0x3d18bbc6	0.03728845
178	0x3caf749d	0.02141791
179	0x3d350533	0.04419441
180	0x3d82181f	0.06352257
181	0x3c5f99a4	0.013647471
182	0x3d870a0f	0.065937154
183	0xbca23999	-0.019802855
184	0x3c31fa8d	0.010862959
185	0xbb91f57c	-0.004454313
186	0x3cb59b85	0.022168884
187	0xbc795447	-0.015217847
188	0xbbb1759e	-0.0054156324
189	0xba2e47de	-0.0006648282
190	0xbd438ef2	-0.047743745
191	0xbc9882af	-0.018617002
192	0xbd840843	-0.06446888
193	0x3d8edda3	0.069758676
194	0x3ce03bee	0.027372327
195	0xbb8d7205	-0.0043165707
196	0xbd1c528e	-0.038164668
197	0x3cc7adc1	0.024374845
198	0x3bdd4761	0.006752894
199	0x3c17b97a	0.00926053
200	0xbda4b5d7	-0.08042496
201	0x3d08dfea	0.033416666
202	0xbd1ed2c6	-0.038775228
203	0x3d0b763c	0.034048304
204	0xbcd68938	-0.026188478
205	0x3d437ff0	0.047729433
206	0x3c1a0879	0.009401434
207	0x3d23587c	0.039879307
208	0x3d18a66b	0.037268084
209	0x3d8e84f7	0.06958955
210	0xbc9258b1	-0.017864557
211	0xbd1e038b	-0.038577598
212	0x3cb7df03	0.022445207
213	0xbcb0517c	-0.02152323
214	0xbcca1280	-0.024667025
215	0xbc883827	-0.016628338
216	0x3cb13aef	0.021634547
217	0xbd251839	-0.040306304
218	0xbcb28e0c	-0.021796249
219	0xbd7d901f	-0.061905023
220	0xbb7727eb	-0.0037713002
221	0xbd906d9a	-0.07052155
222	0xbd2babe9	-0.041911993
223	0x3d7d604d	0.061859418
224	0x39e0f93e	0.0004291031
225	0x3d815a70	0.06316078
226	0x3cdc2c7b	0.026876679
227	0xbcf3d113	-0.02976278
228	0xbcde5cd1	-0.027143868
229	0xbd65241c	-0.05594264
230	0xbd1c6a40	-0.038187265
231	0x3d147caa	0.0362517
232	0xbc6fbf7d	-0.014633057
233	0xbde5d3ca	-0.11222036
234	0xbd12e961	-0.0358671
235	0xbd32b4ca	-0.043629445
236	0x3b147e5b	0.0022658322
237	0xbd93eb16	-0.072225735
238	0xbd2a1e75	-0.041532952
239	0x3d0b00dc	0.033936366
240	0xbda9527d	-0.082676865
241	0x3d29ff2b	0.041503113
242	0xbc7972de	-0.01522514
243	0xbc09b847	-0.008405752
244	0xbd1bcb19	-0.038035486
245	0xbb613e5b	-0.0034369442
246	0x3c70c8b4	0.014696289
247	0x3c92e1b5	0.017929891
248	0xbd1af334	-0.037829593
249	0x3bae9378	0.0053276382
250	0xbb94cab7	-0.004540767
251	0x3c0f6a61	0.00875339
252	0x3c5cd748	0.013479061
253	0x3d2586d1	0.040411774
254	0x3cb7b662	0.022425834
255	0xbd965428	-0.0734027

w1.bias f4 [96]
0	0xbca7edff	-0.020499228
1	0x3dc790bb	0.09744402
2	0x3cb1052b	0.02160891
3	0x3ce70462	0.028200332
4	0xbd82ba43	-0.06383183
5	0xbd18729f	-0.037218686
6	0xbdb421a4	-0.08795479
7	0xbd91178b	-0.070845686
8	0x3dc26a0b	0.09492882
9	0xbdec0242	-0.11523868
10	0x3d42e0a0	0.0475775
11	0xbd8e86f3	-0.06959333
12	0xbd2cdfe5	-0.04220571
13	0xbdd0a265	-0.10187224
14	0xbdb0dbe7	-0.08635693
15	0x3d0ef0be	0.03489756
16	0xbd1e601a	-0.03866587
17	0x3ca346ba	0.019931186
18	0xbdb2ce5d	-0.08730767
19	0xbd6903ea	-0.0568885
20	0xbd12893f	-0.03577542
21	0x3cfedddb	0.031111648
22	0xbe003b44	-0.12522608
23	0x3d5eef12	0.054427214
24	0x3cc94161	0.024567308
25	0x3d541025	0.05177321
26	0x3d8bc706	0.0682507
27	0xbe0b88e6	-0.13626441
28	0x3d2159dc	0.039392337
29	0x3d5d484c	0.054024026
30	0x3d093b15	0.03350361
31	0xbdea7acf	-0.11449205
32	0xbde4716b	-0.11154445
33	0x3d4ec6d1	0.050482575
34	0x3d07a6f4	0.033118203
35	0x3c224e7b	0.0099064065
36	0x3d19e24b	0.037569325
37	0x3dd4dbd0	0.103934884
38	0xbd98959f	-0.07450413
39	0xbd3674fb	-0.044545155
40	0x3db28a21	0.08717752
41	0x3baec4d6	0.0053335233
42	0xbd6e86d5	-0.058234055
43	0xbd773a3b	-0.060358267
44	0xbd89f8ae	-0.06736885
45	0x3cdeb71a	0.027186919
46	0xbd1ea0a8	-0.038727432
47	0x3c9e3c96	0.019315999
48	0xbe04624b	-0.12928121
49	0xbdb20168	-0.086916745
50	0x3d13f594	0.036122873
51	0xbd52a417	-0.05142602
52	0x3d11cb14	0.03559406
53	0x3d1b88af	0.03797215
54	0x3d8f66b9	0.07002015
55	0x3cd7915d	0.026314432
56	0x3c774e49	0.015094348
57	0xbe0d1ff7	-0.13781725
58	0xbcecf69d	-0.028926188
59	0x3d1dd410	0.038532317
60	0x3d40b99b	0.047052007
61	0x3d9aaa5b	0.07552024
62	0x3d433d46	0.047665857
63	0x3d8c3e49	0.068478175
64	0xbd6b52ff	-0.057452198
65	0xbdc6f0ca	-0.097138956
66	0x3d6bb761	0.05754793
67	0x3c5fb6c6	0.013654416
68	0x3cc6a4a0	0.024248421
69	0xbda5a812	-0.080886975
70	0xbd6f0481	-0.058353905
71	0xbe1ac797	-0.151152
72	0x3de38839	0.11109967
73	0x3d919606	0.07108693
74	0xbe03b51c	-0.12862056
75	0x3d39d38a	0.045367755
76	0xbd25bb8e	-0.04046207
77	0x3d0bd23b	0.03413604
78	0x3d17e942	0.037087686
79	0xbd57e927	-0.052712586
80	0xbdc7350b	-0.09726914
81	0x3d59a0d1	0.053131882
82	0x3d01ccb4	0.03168936
83	0x3dab763e	0.08372162
84	0x3d9c831a	0.07642193
85	0xbc4f0ef9	-0.012637847
86	0x3dcb2675	0.099194445
87	0xbd7f746c	-0.062366888
88	0x3d9897d3	0.07450833
89	0xbd4d2e97	-0.05009326
90	0xbd04ea4f	-0.032450017
91	0x3d330e40	0.04371476
92	0xbcc703f0	-0.02429387
93	0x3d088526	0.033330105
94	0xbd977d90	-0.07396996
95	0x3d38006a	0.04492227

w2.weight f4 [12, 96, 1, 1]
0	0xbb857d61	-0.004073784
1	0xbc5c6efe	-0.013454197
2	0x3d7409f7	0.059579816
3	0x3c831148	0.015999451
4	0x3d26cda2	0.04072345
5	0x3cfea6da	0.03108542
6	0xbbd55334	-0.0065101627
7	0x3af965b1	0.0019027499
8	0xbce84da9	-0.028357344
9	0xbd3fb0fc	-0.046799645
10	0xbb18d323	-0.0023319207
11	0xbc213bd6	-0.009840926
12	0x3c9b03e4	0.018922754
13	0xbcbac50b	-0.022799036
14	0x3d50c519	0.050969217
15	0x3c64ad7b	0.013957377
16	0x3c577282	0.013149859
17	0x3d556cb5	0.052105624
18	0x3c720fe9	0.014774301
19	0xbc074759	-0.008256757
20	0x3b09c7ed	0.0021023706
21	0xbcc070a2	-0.023491208
22	0xbd4a3bce	-0.04937344
23	0xbc830b14	-0.015996493
24	0xbd1134de	-0.03545081
25	0xbd0249c0	-0.031808615
26	0xbc242985	-0.010019665
27	0x3cf49bdc	0.029859476
28	0x3c1837c7	0.009290642
29	0x3bd7636b	0.006573131
30	0xbbba0d9a	-0.005677891
31	0xbc1187af	-0.008882447
32	0xbd406044	-0.046966806
33	0x3b23bcf9	0.0024984463
34	0x3c350c3a	0.011050278
35	0xbc4fe093	-0.01268782
36	0x3b78940d	0.0037930042
37	0xbcf567d6	-0.02995674
38	0x3cd293ae	0.025705185
39	0xbd47fc57	-0.048824634
40	0xbc036712	-0.008020179
41	0x3d3dd480	0.046345234
42	0xbcd39ab2	-0.0258306
43	0x3d0a8dfa	0.033826806
44	0xbc9f61a8	-0.019455746
45	0xbc5f7d6b	-0.013640742
46	0x3cf71001	0.030158998
47	0xbd0ebdf8	-0.034849137
48	0xbc46bbce	-0.012129737
49	0xbc8b75a9	-0.017023878
50	0x3d0f274b	0.034949582
51	0xbb84ea63	-0.0040562614
52	0xbcc4e5c2	-0.024035338
53	0x3b7695bf	0.0037625877
54	0xbc8e19e9	-0.01734634
55	0x3cae706f	0.021293847
56	0x3d2f6243	0.04281832
57	0xbb848162	-0.004043744
58	0xbc57a745	-0.013162439
59	0xbcc7f42a	-0.024408419
60	0xbc8be6a5	-0.017077753
61	0xbcabb939	-0.020962344
62	0x3d05014b	0.032471936
63	0xbb83d97f	-0.0040237303
64	0x3d141781	0.036155228
65	0x3cb1570c	0.021647952
66	0x3a64a79b	0.0008722485
67	0xbc8fc8d3	-0.017551815
68	0x3cabc41e	0.02096754
69	0x3cbe1f0f	0.02320817
70	0x3d443e45	0.047910947
71	0xba0bc8bd	-0.00053323415
72	0x3c9e9101	0.019356253
73	0xbd0064d3	-0.031346153
74	0x3c0d6123	0.008629116
75	0xbc77a2c6	-0.015114492
76	0x3c596a52	0.013269978
77	0x399ab2c7	0.00029506368
78	0x3d71ea8d	0.059061576
79	0xbd32e9a2	-0.04367984
80	0x3b522b48	0.0032069255
81	0x3bc7a54b	0.0060927025
82	0x3d318c12	0.043346472
83	0xbcc45e6c	-0.023970805
84	0xbc250919	-0.01007297
85	0xbc58ee96	-0.013240477
86	0xbc0dd117	-0.008655808
87	0x3b474f87	0.0030412392
88	0xbc0db7d1	-0.008649782
89	0x3b0b0a6b	0.0021215926
90	0x3d10f096	0.03538569
91	0xbcb561d0	-0.022141367
92	0x3cac527c	0.021035425
93	0xb96286da	-0.00021603276
94	0x3c96da0c	0.01841452
95	0x3d10687d	0.035255898
96	0x3d4c3345	0.049853582
97	0xbc0db3a7	-0.0086487895
98	0x3be33fcd	0.006935096
99	0x3c9ca7cf	0.019122986
100	0x3ca8d6e6	0.020610284
101	0x3cda252a	0.02662905
102	0x3c99131a	0.018685866
103	0x3a1906fb	0.0005837527
104	0xbc8bb0ef	-0.017052142
105	0xbd059d77	-0.032620873
106	0xbc0a8222	-0.008453878
107	0xbb238318	-0.0024949964
108	0x3c42fbdc	0.011900868
109	0xb9ec5053	-0.00045073274
110	0x3d074211	0.03302199
111	0x3c214675	0.009843458
112	0x3cba6573	0.022753453
113	0x3d3e09e3	0.046396147
114	0x3cbf0ff5	0.023323039
115	0xbc6ea78d	-0.014566314
116	0x3d088ec2	0.03333927
117	0xbd17955e	-0.037007682
118	0xbcf0db7b	-0.029401531
119	0xbcc67946	-0.02422775
120	0xbc035ea1	-0.008018167
121	0xbc800c5a	-0.01563089
122	0x3bd347ea	0.006447782
123	0x3ce4768f	0.027888564
124	0x3b903c81	0.004401744
125	0x3cccb532	0.024988744
126	0xbc817da8	-0.015806988
127	0xbac90cce	-0.0015338899
128	0xbcbf07b9	-0.023319112
129	0xbb8a106d	-0.004213384
130	0x3d13d81e	0.036094777
131	0x3d5a335f	0.053271648
132	0xbc838aa4	-0.01605732
133	0x3b288fa6	0.0025720387
134	0x3d336f7d	0.043807495
135	0xbc04cf56	-0.008106073
136	0xbcc52a90	-0.024068147
137	0x3d54cb74	0.05195184
138	0xbc286616	-0.010278245
139	0x3d016eea	0.031599917
140	0xbcfa0ca2	-0.030523602
141	0xbc5e8365	-0.013581132
142	0x3d1f7e4b	0.0389388
143	0xbc503866	-0.012708759
144	0xbb9d8e36	-0.0048082126
145	0xbc877e11	-0.016539605
146	0x3bd0789c	0.006362034
147	0x3c1320f8	0.008980028
148	0xbcce1da8	-0.025160626
149	0xbd150fbd	-0.036391962
150	0xbc9dfd0d	-0.019285703
151	0xbcaf81e1	-0.021424236
152	0x3d715786	0.05892136
153	0xbcee4025	-0.02908332
154	0x3a4f6e39	0.0007912848
155	0xba5df682	-0.00084672135
156	0xbc2bb5f1	-0.01048039
157	0xbc239646	-0.009984558
158	0x3d0e043f	0.03467202
159	0xbc5db4c4	-0.013531867
160	0x3cec6054	0.028854527
161	0x3d432967	0.047646906
162	0x3a9a707a	0.0011782788
163	0xbc825aef	-0.015912501
164	0x3cbd70c0	0.023125052
165	0x3c4ba371	0.012429104
166	0x3cd41b58	0.025891945
167	0xbc8e840e	-0.017396953
168	0xbc73f435	-0.014889766
169	0xbc829c20	-0.015943587
170	0x3c5bfae6	0.013426518
171	0xbca2d195	-0.019875327
172	0x3ce38724	0.027774401
173	0x3d52a12d	0.05142324
174	0x3d1efc03	0.038814556
175	0xbc46b94c	-0.012129139
176	0x3c9d1f76	0.01918004
177	0xba8d90b1	-0.0010800568
178	0x3cee9dbc	0.029127948
179	0xba948b0e	-0.0011332945
180	0x3c52d56f	0.012868269
181	0x3c588c8a	0.013217101
182	0xbd0331aa	-0.032029785
183	0xbbda6c04	-0.0066657085
184	0x3aabc5da	0.0013105229
185	0xbcb9c853	-0.02267853
186	0x3cafbf07	0.021453394
187	0xbd0a349a	-0.03374157
188	0xbbc333ab	-0.005957087
189	0x3c5a02ba	0.013306314
190	0x3d262a31	0.04056758
191	0x3d067d15	0.03283413
192	0xbc2abead	-0.010421437
193	0xbc45b889	-0.012067922
194	0xbd00d9bb	-0.031457644
195	0x3cf7dd72	0.03025696
196	0x3d2d0363	0.042239558
197	0x3c18ca2a	0.009325543
198	0x3d0d998b	0.034570258
199	0x3a66634e	0.0008788601
200	0xbbd77a4c	-0.006575858
201	0xbc5fdb01	-0.013663054
202	0xbc93917f	-0.018013714
203	0x3aa9c176	0.0012951333
204	0xbc58da8d	-0.0132357
205	0xbc76dc87	-0.015067226
206	0x3c8b79e7	0.017025901
207	0x3cc6c7c0	0.02426517
208	0xbc937d50	-0.01800409
209	0x3d1dfd25	0.038571496
210	0x3c134949	0.0089896405
211	0x3c8f9999	0.017529296
212	0xbbb47130	-0.005506657
213	0xbbf7d4f7	-0.007563229
214	0xbd130ae0	-0.035899043
215	0xbccdbe0c	-0.025115035
216	0xbb613bd2	-0.003436793
217	0xbcc10c32	-0.023565385
218	0x3bccafef	0.006246559
219	0x3cdd6e99	0.027030276
220	0x3d586036	0.05282613
221	0x3c232f72	0.009960042
222	0xbd282ae8	-0.041056544
223	0xbc77f3e5	-0.015133833
224	0xbd21767d	-0.03941964
225	0x3ba3769a	0.0049885036
226	0x3c2441fe	0.010025499
227	0x3ca06f45	0.019584307
228	0x3c0dce34	0.00865512
229	0xbcc5c607	-0.024142278
230	0xbcab446b	-0.020906648
231	0xbd192880	-0.03739214
232	0xbcb7c5db	-0.022433212
233	0x3d1779e8	0.036981493
234	0x3bff0336	0.007782365
235	0x3bd0cb46	0.0063718883
236	0xbcfe384b	-0.031032702
237	0xbcd0313a	-0.025414098
238	0x3d117588	0.035512477
239	0x3be66214	0.007030735
240	0x3b0a124f	0.0021068042
241	0xbac2e5d0	-0.0014869515
242	0x3d269b2e	0.040675335
243	0xbc42ed7c	-0.011897441
244	0xbce81eed	-0.028335059
245	0xbd1267e3	-0.035743605
246	0xbd1fbe8d	-0.039000083
247	0x3ba23377	0.0049499827
248	0x3d1d7319	0.038439844
249	0x3d585ff6	0.05282589
250	0x3cc86dc8	0.02446641
251	0xbccbe6e5	-0.024890373
252	0xbba34164	-0.0049821604
253	0xbc9aee8e	-0.01891258
254	0x3d0cd837	0.034385886
255	0xbb9a9618	-0.0047175996
