textures/trained_models/Noise-NCA/grid_0002_Rinv/weights.pt (torch, 16605 bytes, 3 tensors)

w1.weight f4 [96, 24, 1, 1]
-0.09817257 -0.0059104078 -0.049554143 -0.00071654504 -0.08156569 -0.0016457022 0.0126424255 -0.033108488
0.057502948 -0.026468368 0.0034930469 -0.052719798 0.06581811 0.014066989 -0.011808065 0.012184302
0.05738521 -0.0058241757 0.032210223 -0.002100015 -0.031012774 0.06642003 0.051262453 0.029177688
0.041511096 -0.038772427 -0.00639898 -0.02778979 0.027708916 -0.020170337 -0.020690367 -0.03975591
-0.0062586037 0.025430543 0.01211268 0.01917384 -0.0050366363 0.0039547915 -0.11494719 0.05265778
0.033473436 0.08525291 0.004329022 -0.003113465 -0.03725687 -0.015827589 0.002544621 -0.0391646
0.00026429215 0.019778693 0.12386472 0.00816251 -0.032907754 0.06518211 -0.10072842 0.02735062
0.026107972 0.02591481 0.060799956 -0.124395885 0.0105645405 -0.044181716 -0.031030742 0.0017323112
0.015309457 -0.05425147 0.055120245 -0.03187342 -0.05072719 -0.07740615 -0.020514514 -0.0125310235
0.029110283 0.07987412 0.052906767 0.12542364 0.054813482 -0.012001994 -0.1164476 -0.0012017983
0.013713343 0.05623405 -0.04920335 -0.030128216 -0.054542307 0.009899179 0.053495955 0.043986484
-0.03461281 0.042674024 -0.009910762 -0.0128997965 -0.005278136 -0.04621754 0.0060282336 -0.08974546
-0.0049420847 0.04868964 -0.00078908884 0.013913682 0.010096267 -0.029673427 0.06437779 0.07573272
-0.0717228 0.08577323 0.0055894298 -0.048668418 0.04335759 -0.031623695 0.050734136 -0.0083245635
-0.11809178 0.023376526 0.0028291366 -0.08043472 -0.04221226 0.0018708924 0.105797134 -0.025584761
-0.0064752176 -0.057787724 -0.029268682 0.0032088915 0.022815458 0.045520857 -0.016553065 -0.013370328
-0.03561133 -0.023935769 -0.09834674 -0.0137326475 -0.036247946 0.11265404 0.02754468 -0.037284326
0.036902197 -0.017924136 0.045192007 -0.016860368 -0.048336215 -0.0003086658 -0.07526986 0.07832952
-0.04790441 -0.025171977 0.010813144 0.052845746 0.004382791 -0.0005805875 -0.004075626 0.064495
-0.015050807 -0.009579432 0.0092992475 0.03565089 -0.04484536 0.0018898329 -0.050407134 -0.056605954
-0.033393115 0.001661739 0.013483132 -0.039188504 -0.042580094 -0.017045055 -0.004228271 -0.038576227
0.047582474 -0.0004806565 0.056748062 -0.04159248 -0.016113997 0.04679544 -0.06568131 0.015984189
-0.03134222 0.08699624 0.04657089 0.041676715 0.05480411 -0.019934488 -0.07038671 0.032300342
0.076065876 -0.016566457 -0.033071276 0.121564835 -0.030072195 0.06263526 0.011519397 -0.04248267
-0.034321826 0.0034909393 -0.021255348 -0.00702795 -0.12336443 0.06768247 -0.003482108 0.05647243
-0.0013715104 -0.02625556 0.040473003 -0.057626784 0.00562337 0.018559273 0.016401092 -0.051689763
0.006775443 -0.025119968 0.055164758 0.0012022001 0.018159505 0.0030643244 0.012152126 -0.009198185
-0.1047254 0.011453523 -0.11739157 0.04510003 -0.087126344 -0.017367674 0.05262561 0.022847721
-0.003923508 -0.12891804 0.085215375 -0.06204208 -0.011297462 -0.006221846 0.04285376 0.018880757
0.052590795 0.010320678 0.05210047 0.058672715 0.039425064 -0.028914174 0.10022469 0.006554751
-0.018660016 0.06184156 -0.0023462218 0.07077474 0.004164898 -0.03423736 0.016948018 -0.011101431
-0.013514451 -0.097287215 0.006194385 0.0015341472 0.062453713 -0.050539404 0.0725487 -0.042481042
00000000: b30e c9bd 18ac c1bb 49f9 4abd 86d6 3bba
00000010: ea0b a7bd 9ab4 d7ba 2d22 4f3c c49c 07bd
00000020: 3688 6b3d 31d4 d8bc 9aeb 643b b7f0 57bd
00000030: a5cb 863d 3a79 663c 9d76 41bc aba0 473c
00000040: c10c 6b3d bad8 bebb deee 033d 68a0 09bb
00000050: 800e febc 3a07 883d 94f8 513d 0c06 ef3c
00000060: 8a07 2a3d d6cf 1ebd 89ae d1bb 6aa7 e3bc
00000070: cffd e23c 433c a5bc d87e a9bc 18d7 22bd
00000080: f914 cdbb b753 d03c 4374 463c 7512 9d3c
00000090: 5e0a a5bb 3297 813b 6f69 ebbd afaf 573d
000000a0: 711b 093d 1499 ae3d 78da 8d3b 460b 4cbb
000000b0: a99a 18bd dca8 81bc a8c3 263b 0f6b 20bd
000000c0: b190 8a39 ed06 a23c c9ac fd3d 0cbc 053c
000000d0: 48ca 06bd 337e 853d b44a cebd 680e e03c
000000e0: 63e0 d53c 4c4b d43c 6009 793d 45c3 febd
000000f0: e516 2d3c e3f7 34bd 2f34 febc b80e e33a
00000100: 84d4 7a3c ca36 5ebd c4c5 613d b48d 02bd
00000110: 50c7 4fbd 1e87 9ebd 0e0e a8bc ec4e 4dbc
00000120: b078 ee3c 0b95 a33d c4b4 583d 0e6f 003e
00000130: 1a84 603d 03a4 44bc 147c eebd a985 9dba
00000140: eead 603c ad55 663d 7489 49bd 73cf f6bc
00000150: c167 5fbd 2b30 223c 931e 5b3d 2c2b 343d
00000160: 29c6 0dbd f5ca 2e3d c060 22bc ab59 53bc
00000170: 37f4 acbb 9a4e 3dbd 7d88 c53b 78cc b7bd
00000180: 36f1 a1bb ca6e 473d dbda 4eba 36f6 633c
00000190: d06a 253c b015 f3bc 81d8 833d c219 9b3d
000001a0: 67e3 92bd e0a9 af3d 8927 b73b 8958 47bd
000001b0: ba97 313d d987 01bd 99ce 4f3d c063 08bc
000001c0: 1ada f1bd 2180 bf3c 0969 393b f5ba a4bd
000001d0: c3e6 2cbd bb38 f53a 2bac d83d 2297 d1bc
000001e0: 102e d4bb d2b2 6cbd e0c4 efbc 444c 523b
000001f0: 7ce7 ba3c 1474 3a3d 4b9a 87bc 380f 5bbc
00000200: 30dd 11bd f214 c4bc 046a c9bd e6fe 60bc
00000210: ba78 14bd 29b7 e63d 61a5 e13c 73b7 18bd
00000220: c226 173d a3d5 92bc 411b 393d c11e 8abc
00000230: 32fc 45bd 6cd4 a1b9 1627 9abd 3a6b a03d
00000240: 6a37 44bd 7635 cebc 9d29 313c c874 583d
00000250: 849d 8f3b 9132 18ba d48c 85bb f415 843d
00000260: a997 76bc 0df3 1cbc df5b 183c ab06 123d
00000270: c5af 37bd 45b4 f73a b677 4ebd a5db 67bd
00000280: 38c7 08bd b5ce d93a 5be8 5c3c 2084 20bd
00000290: 7768 2ebd 12a2 8bbc 4f8d 8abb 1b02 1ebd
000002a0: d7e5 423d a000 fcb9 a870 683d e05c 2abd
000002b0: 8001 84bc 93ac 3f3d ec83 86bd 46f1 823c
000002c0: b360 00bd 162b b23d 1ec1 3e3d 34b5 2a3d
000002d0: 467a 603d a74d a3bc e826 90bd 5d4d 043d
000002e0: 6dc8 9b3d 61b6 87bc bf75 07bd fcf6 f83d
000002f0: f759 f6bc ea46 803d dabb 3c3c 4f02 2ebd
00000300: 0b95 0cbd 3ec8 643b b21f aebc b84a e6bb
00000310: 7ea6 fcbd 1b9d 8a3d 1434 64bb a24f 673d
00000320: 41c4 b3ba e615 d7bc 05c7 253d 100a 6cbd
00000330: 3f44 b83b 9e09 983c 955b 863c a5b8 53bd
00000340: 8904 de3b 64c8 cdbc 71f4 613d 2493 9d3a
00000350: 3ec3 943c d5d2 483b b619 473c fcb3 16bc
00000360: 457a d6bd 8fa7 3b3c fe6a f0bd cfba 383d
00000370: 4c6f b2bd a746 8ebc f48d 573d 252b bb3c
00000380: c590 80bb 1703 04be 6685 ae3d d61f 7ebd
00000390: fd18 39bc a1e0 cbbb 6d87 2f3d d1ab 9a3c
000003a0: 7269 573d 1018 293c 4d67 553d cd52 703d
000003b0: 2d7c 213d 6bdd ecbc 9a42 cd3d 3dc9 d63b
000003c0: e4dc 98bc 934d 7d3d 12c3 19bb 59f2 903d
000003d0: b279 883b 793c 0cbd 92d6 8a3c c7e2 35bc
000003e0: b76b 5dbc 853e c7bd 44fa ca3b 7015 c93a
000003f0: 77cf 7f3d 6802 4fbd 6a94 943d 9a00 2ebd

w1.bias f4 [96]
0.062333908 -0.04389261 -0.04508713 -0.1490854 -0.15927234 -0.15675762 -0.1788145 0.047456004
0.054382693 -0.07877259 -0.11475087 0.10955046 -0.0290469 -0.1720113 0.052946255 0.022306738
-0.23246601 0.11798663 0.119266436 -0.045792643 0.058230046 -0.05579052 -0.101169266 0.08116202
0.091587186 0.109112345 0.13560021 0.067535736 0.05891587 -0.124920554 0.021324892 0.09336476
-0.20157209 -0.14310117 -0.08071429 -0.15103976 0.024882145 -0.06763533 0.06729156 -0.039178904
0.092301644 0.08313384 0.058198225 -0.06058003 0.068917915 0.059671614 0.0060749315 0.027326053
0.09732366 -0.087399445 0.015255564 -0.05743211 0.06126018 -0.17363107 -0.03868705 0.09194203
-0.068555996 0.012156609 -0.04368715 -0.122407496 0.09672128 -0.025071748 -0.14172994 -0.06354504
0.103410296 0.08569973 -0.012853288 -0.19166166 -0.15182605 -0.090913296 -0.029782848 0.044279587
0.005687186 0.041202947 0.045672588 0.111944765 0.027985549 0.03639328 0.06861386 0.09113176
-0.11864794 0.13892666 0.07001673 -0.051788 -0.22799736 0.04219387 0.112826586 0.08595135
-0.14933987 -0.015423948 -0.012349286 -0.009205042 -0.1261213 0.08876584 -0.0040658256 0.048241276
00000000: d751 7f3d bdc8 33bd 48ad 38bd d8a9 18be
00000010: 4a18 23be 1285 20be 261b 37be 3a61 423d
00000020: 63c0 5e3d 8653 a1bd 8102 ebbd fe5b e03d
00000030: c4f3 edbc bb23 30be 2cde 583d 9fbc b63c
00000040: 920b 6ebe f9a2 f13d f641 f43d 1191 3bbd
00000050: a182 6e3d 9a84 64bd d531 cfbd 4638 a63d
00000060: 1092 bb3d 4b76 df3d c8da 0a3e 2d50 8a3d
00000070: c451 713d 59d6 ffbd 8ab1 ae3c 0636 bf3d
00000080: ea68 4ebe 1d89 12be 894d a5bd 2baa 1abe
00000090: a4d5 cb3c 6484 8abd 28d0 893d 0f7a 20bd
000000a0: a508 bd3d 1342 aa3d 4361 6e3d c422 78bd
000000b0: d624 8d3d 396a 743d 3810 c73b e3da df3c
000000c0: a151 c73d 7bfe b2bd 79f2 793c ef3d 6bbd
000000d0: f4eb 7a3d 58cc 31be 5076 1ebd 1a4c bc3d
000000e0: 1667 8cbd 842c 473c 4cf1 32bd c8b0 fabd
000000f0: ce15 c63d 4463 cdbc a721 11be e723 82bd
00000100: c7c8 d33d 5783 af3d 9996 52bc f442 44be
00000110: 4a78 1bbe c030 babd 29fb f3bc 835e 353d
00000120: 935b ba3b 6cc4 283d 2e13 3b3d 4c43 e53d
00000130: f341 e53c 1f11 153d 6c85 8c3d 4aa3 ba3d
00000140: b1fd f2bd ca42 0e3e ee64 8f3d a71f 54bd
00000150: 2478 69be 7bd3 2c3d a011 e73d 4307 b03d
00000160: 8dec 18be bab4 7cbc a954 4abc bfd0 16bc
00000170: f125 01be ddca b53d 9e3a 85bb a598 453d

w2.weight f4 [12, 96, 1, 1]
0.00968402 -0.035087563 -0.017502295 -0.00870804 0.044849645 0.009742465 -0.024629192 0.0010458842
-0.0043065245 0.062430866 0.021987285 0.05618203 0.015962569 0.03145483 -0.04294342 -0.07533918
0.031953126 0.0013668117 0.007826208 -0.021992667 0.039504237 0.016149778 -0.036989648 -0.005166514
6.823166e-05 -0.01075074 0.002915674 0.0116806105 -0.015154232 -0.0194433 -0.04815836 0.024533747
0.0128558995 0.0347333 -0.04808822 -0.03687909 -0.019050108 0.01716746 -0.01016991 0.004633964
0.025409238 -0.015610529 -0.009583533 -0.023660406 -0.042930845 0.05052794 -0.041987877 0.049052313
0.00039838842 -0.0274761 -0.020892791 0.0005951357 0.033178408 -0.02969987 0.002465732 -0.0066789556
-0.052850142 -0.017911246 -0.04097401 -0.012041776 0.005049953 0.0038029728 0.030949716 -0.01913457
0.00017746986 0.015046301 -0.04723014 0.06836026 0.022499518 -0.019434767 -0.003217767 -0.012302821
0.013869049 -0.02058166 -0.008068317 -0.0198296 -0.012388663 0.0008161771 0.038221136 0.013097651
-0.13646314 0.016753512 0.014914811 0.012365058 0.076603234 0.086392835 0.011854816 0.01694304
0.035790768 -0.01739381 -0.011843826 -0.034542803 0.037633765 0.01613027 -0.04891522 0.08187321
0.004774035 -0.028478656 -0.062285643 0.013075482 0.021547617 0.009747869 0.035649806 -0.016538674
-0.008798488 0.077003464 0.0055885147 -0.027303481 0.0038625589 -0.038012315 0.0045816908 0.035754614
0.047109418 0.018408192 0.0052247494 -0.03939913 -0.0027100525 0.0038841611 -0.011869736 0.03467143
-0.00012492148 0.016263435 0.071117 -0.0120834345 0.0029546698 -0.07261861 0.0015776441 0.009833954
0.01291669 0.013400798 -0.033530936 -0.0067822207 -0.048778098 0.024447517 0.012237937 -0.06465016
-0.014395112 0.03940484 -0.009091163 -0.018593 0.05267918 0.004678867 -0.014106826 -0.033029847
0.016949106 -0.006316121 -0.0039461507 0.007626079 -0.014152517 -0.014516889 -0.016678914 -0.0009284131
-0.04753615 0.00375174 -0.025040017 -0.0035919538 0.017376564 0.015961653 0.02445875 0.0023229816
0.0052382187 0.014154726 -0.0077974238 0.0933813 -0.020377995 0.008673473 -0.06887297 0.025980297
-0.09220515 -0.013760835 -0.00983947 0.031172883 0.015571431 -0.03345773 0.020909773 -0.009813368
-0.12905976 0.036476817 0.012228289 -0.0024242497 0.081400156 0.023686823 -0.006589756 -0.0057924297
0.044440974 -0.008050458 0.008828738 -0.028467277 0.08528623 0.013687893 -0.0105697205 0.009065966
-0.0020196629 -0.02637769 -0.0033649756 -0.02354434 -0.022372298 0.020221181 -0.012511142 0.026979357
0.02541094 0.027626846 -0.026219882 0.019931084 -0.042194452 0.015246006 0.024613788 0.029558841
0.061770305 0.006063986 -0.002488757 -0.039795786 0.046694804 0.019694597 0.014683245 -0.043728594
-0.0053807115 -0.001766311 0.048775345 0.040021587 0.0020591998 -0.024790684 -0.041992743 -0.0074188053
0.0011195873 -0.0116430465 -0.080478065 0.016140018 -0.054360125 0.016627396 -0.027521515 -0.0008765652
-0.0016122534 0.061457325 -0.014464561 -0.023439331 -0.00823493 -0.013488133 -0.01072863 0.046287075
0.012281841 -0.01776516 -0.022616552 0.038643867 -0.03035225 -0.010484037 -0.02550609 -0.018783063
-0.00063118566 0.017532054 -0.061302777 -0.02544351 -0.037825692 -0.01864913 0.0020236196 -0.027376888
00000000: b9a9 1e3c fab7 0fbd f960 8fbc 2bac 0ebc
00000010: 43b4 373d dc9e 1f3c 29c3 c9bc 0d16 893a
00000020: bf1d 8dbb 82b7 7f3d ae1e b43c 211f 663d
00000030: efc3 823c c8d6 003d 71e5 2fbd 6e4b 9abd
00000040: 48e1 023d 9726 b33a 7f39 003c f729 b4bc
00000050: 32cf 213d 8a4c 843c 7582 17bd dc4b a9bb
00000060: 9817 8f38 df23 30bc e414 3f3b 0860 3f3c
00000070: 7549 78bc 8e47 9fbc b341 45bd fffa c83c
00000080: 8da1 523c 8144 0e3d 27f8 44bd 870e 17bd
00000090: f90e 9cbc c6a2 8c3c b29f 26bc 82d8 973b
000000a0: 0927 d03c 4ec3 7fbc 4004 1dbc 78d3 c1bc
000000b0: 41d8 2fbd 63f6 4e3d 7bfb 2bbd 14eb 483d
000000c0: cade d039 8f15 e1bc 5c27 abbc e102 1c3a
000000d0: 15e6 073d 244d f3bc 1e98 213b 24db dabb
000000e0: 6479 58bd 9bba 92bc 5dd4 27bd df4a 45bc
000000f0: 137a a53b 4c3b 793b 428a fd3c 1ac0 9cbc
00000100: 3417 3a39 c384 763c 6474 41bd 7700 8c3d
00000110: e950 b83c a935 9fbc 2ce1 52bb c591 49bc
00000120: 023b 633c df9a a8bc f930 04bc af71 a2bc
00000130: d2f9 4abc b8f4 553a c48d 1c3d 8897 563c
00000140: febc 0bbe a93e 893c 405d 743c d096 4a3c
00000150: 28e2 9c3d baee b03d b43a 423c 21cc 8a3c
00000160: 5799 123d 777d 8ebc 9b0c 42bc c17c 0dbd
00000170: dd25 1a3d a123 843c 535b 48bd 24ad a73d
00000180: 826f 9c3b 124c e9bc 3b1f 7fbd 8c3a 563c
00000190: a184 b03c 87b5 1f3c 8805 123d 1d7c 87bc
000001a0: 8927 10bc feb3 9d3d dc1f b73b 8dab dfbc
000001b0: fc22 7d3b cdb2 1bbd 0222 963b 6e73 123d
000001c0: cef5 403d c7cc 963c 6034 ab3b fb60 21bd
000001d0: 239b 31bb 698d 7e3b 4879 42bc a103 0e3d
000001e0: 5bfd 02b9 e53a 853c caa5 913d 99f9 45bc
000001f0: 22a3 413b 11b9 94bd f4c8 ce3a 981e 213c
00000200: 86a0 533c 058f 5b3c bc57 09bd 643d debb
00000210: 8bcb 47bd 2946 c83c a181 483c 4e67 84bd
00000220: 7ad9 6bbc f866 213d 1af3 14bc 5950 98bc
00000230: 20c6 573d 2e51 993b 5120 67bc 4e4a 07bd
00000240: dad8 8a3c 77f7 cebb b64e 81bb 30e4 f93b
00000250: f5df 67bc 3fd8 6dbc 38a2 88bc c060 73ba
00000260: 44b5 42bd c1df 753b b920 cdbc fc66 6bbb
00000270: 4c59 8e3c 03c2 823c b75d c83c 2a3d 183b
00000280: 5da5 ab3b 39e9 673c 8881 ffbb b23e bf3d
00000290: c1ef a6bc 2f1b 0e3c 460d 8dbd a2d4 d43c
000002a0: 0ed6 bcbd 2075 61bc ba35 21bc 465e ff3c
000002b0: 511f 7f3c f90a 09bd f94a ab3c 40c8 20bc
000002c0: 3e28 04be b768 153d 2959 483c 29e0 1ebb
000002d0: 20b5 a63d de0a c23c e1ee d7bb 6cce bdbb
000002e0: bd07 363d 11e6 03bc 69a6 103c 3534 e9bc
000002f0: 8caa ae3d 2f43 603c 9f2c 2dbc 6b89 143c
00000300: 525c 04bb 0616 d8bc ec86 5cbb 0fe0 c0bc
00000310: 1c46 b7bc e4a6 a53c 88fb 4cbc d003 dd3c
00000320: 9b2a d03c b251 e23c 14cb d6bc 8346 a33c
00000330: 17d4 2cbd 62ca 793c dba2 c93c 6225 f23c
00000340: dc02 7d3d 67b4 c63b 6a1a 23bb e800 23bd
00000350: 0d43 3f3d 9056 a13c fe91 703c c11c 33bd
00000360: ae50 b0bb 9083 e7ba a8c8 473d aded 233d
00000370: a4f3 063b d515 cbbc 9500 2cbd 7319 f3bb
00000380: 1ebf 923a 7ac2 3ebc afd1 a4bd 1238 843c
00000390: b9a8 5ebd 2d36 883c cd74 e1bc 4bc9 65ba
000003a0: 3f52 d3ba adba 7b3d c4fc 6cbc d703 c0bc
000003b0: cdeb 06bc 55fd 5cbc 23c7 2fbc 8497 3d3d
000003c0: c639 493c 3e88 91bc 5946 b9bc 0849 1e3d
000003d0: 48a5 f8bc 3dc5 2bbc 26f2 d0bc f0de 99bc
000003e0: 2776 25ba 629f 8f3c 9f18 7bbd e86e d0bc
000003f0: 1def 1abd 0fc6 98bc b49e 043b 7f45 e0bc
