textures/trained_models/Noise-NCA/smooth_thin_vertical_stripes/weights.pt (torch, 25821 bytes, 3 tensors)

w1.weight f4 [96, 48, 1, 1]
000000 d7 a7 13 bc e0 fd 42 3d 7b 14 9e bd 0c 1d fe bc
       -0.009012184 0.047605395 -0.0771875 -0.03101971
000010 88 31 8e bc bd e5 cc 3c d3 a5 be bc dc 59 d6 3c
       -0.017357603 0.025011891 -0.02327243 0.026165895
000020 13 17 b3 3c 99 7d 03 3d bd b9 d9 ba b4 30 67 bc
       0.021861589 0.0321022 -0.001661114 -0.014110733
000030 ad d9 71 3d aa ec 69 3b d5 4a 98 bd b3 3a e4 bb
       0.059045482 0.0035694041 -0.07436148 -0.0069650053
000040 98 9d 60 3d 87 a9 55 3b cf 8b e2 3c c9 5f c6 bd
       0.054837793 0.0032602267 0.027654557 -0.09686238
000050 34 53 e0 bc 73 cf c2 3c 04 2b 09 3a 88 36 dc 3c
       -0.027383424 0.02378056 0.0005232545 0.026881471
000060 73 e1 86 bc 03 c8 8c 3c d1 f0 18 3d e7 4d a2 3c
       -0.016464924 0.017185217 0.037339035 0.019812537
000070 53 d8 f8 bc d5 85 9a bb 7d 22 70 bd 62 f8 80 3b
       -0.030376589 -0.004715661 -0.05862664 0.0039358595
000080 10 38 5d bc 53 12 ec bc c3 13 91 bd 25 99 6d bd
       -0.013502136 -0.028817331 -0.070838474 -0.058007378
000090 6b 7b 02 3c 42 33 28 3d db 33 6f 3d eb 28 cb bc
       0.007963995 0.04106451 0.058399063 -0.024799785
0000a0 74 6e 83 bd be ef 29 bd 61 63 00 3c 36 dc 54 bb
       -0.06417552 -0.0414884 0.007836194 -0.0032479889
0000b0 b2 23 0d 3d 58 de f4 3c dd ca 82 bd 5a db b0 bd
       0.03445787 0.029891178 -0.06386349 -0.08635588
0000c0 8b 18 f9 3d 85 60 73 3d 85 97 b1 3c 55 6c 8a bd
       0.12162884 0.05941822 0.021678695 -0.06758944
0000d0 4c 39 01 be 8c 36 73 bc 4d 4b 6d 3d 91 a2 86 3d
       -0.12619513 -0.014844548 0.05793314 0.06573976
0000e0 8b 3f 01 bd 77 56 1c bc 56 1d 01 3d 72 87 67 3d
       -0.03155474 -0.009542099 0.031522118 0.056525655
0000f0 b1 f6 72 bc 03 f4 e6 bc 0e bc 31 3d 04 d6 f7 bc
       -0.014829324 -0.028192526 0.043392234 -0.030253418
000100 5e 83 02 bd 49 9b 6b 3c 9d 2d b0 bc 5f ab 3f 3d
       -0.031863563 0.014380285 -0.021506125 0.04679429
000110 16 dd a1 bc d3 e6 47 3c d8 17 42 3d 50 97 3c 3d
       -0.019758742 0.012201029 0.04738602 0.04604274
000120 c7 64 02 bd 07 de 94 bc ec f3 a5 bd 26 4e 1e 3d
       -0.03183439 -0.018172277 -0.08103165 0.038648747
000130 a1 13 a7 3c 06 ba 04 bd 53 1e 36 3d 2b 55 0b 3d
       0.020395102 -0.03240397 0.044462513 0.03401677
000140 1d d5 0c 3c 27 d1 fa 3b 13 e0 5f bd 2e 3b 69 bd
       0.008595732 0.0076543274 -0.054657053 -0.056941204
000150 28 cd fe bc 5d bf b3 3c 92 fa 3c 3c 33 34 92 3d
       -0.031103685 0.021941835 0.01153435 0.071388625
000160 82 28 a0 bc d6 25 e6 bc ce f0 6b 3c cd 0c 6a 3d
       -0.019550566 -0.028094213 0.014400674 0.057141114
000170 ed 4b 08 3d 1a 2e 23 3d af 0e ad bd c7 b2 0c bd
       0.033275533 0.039838888 -0.08450066 -0.034350183
000180 61 a5 41 3d e2 9d 0c bd 93 df cb bd fd 6f 99 3b
       0.04727686 -0.034330256 -0.09954753 0.0046825395
000190 f9 72 7f 3c 67 1a a4 bc b3 7c 3c bd 45 28 22 bc
       0.015591376 -0.02003212 -0.04601736 -0.009897296
0001a0 0e 9b 7d 3c 59 3e 1d bc 1d e6 cf bd e2 20 34 3c
       0.015478862 -0.009597384 -0.101513125 0.010994168
0001b0 72 5a ba bd d6 88 4c bc 28 d0 24 bd e7 2c 02 bc
       -0.09099282 -0.012483796 -0.040237576 -0.007945276
0001c0 d6 6d 5b 3c b1 3e f6 bc 12 31 d3 3c ee 17 83 bc
       0.013392886 -0.03005919 0.025780234 -0.016002622
0001d0 c7 98 7d bc 26 10 9d 3b cd 26 b1 bd c2 52 c2 3c
       -0.0154783195 0.004793185 -0.08649979 0.023721103
0001e0 c4 6e 3b 3d b9 d8 2c 3c 53 b0 45 bd fd 08 df bc
       0.04575993 0.010549718 -0.04826386 -0.027225966
0001f0 21 bc 2a bc bb 4f 3b bc 2c 9e 89 bd 7a 27 ff 3b
       -0.01042083 -0.011432583 -0.06719622 0.0077866884
000200 07 d5 5b bc 30 2b c7 bb 62 a7 5f bc c9 c0 e3 3a
       -0.013417489 -0.0060781464 -0.013650747 0.001737618
000210 4a 5e bf 3c da 25 91 3c 95 b0 43 bc 39 d5 c5 bb
       0.02336039 0.017718244 -0.011943956 -0.006037381
000220 36 e4 0e bc ba e4 4d 3d 54 f7 ac bc 50 fd c2 3a
       -0.008721402 0.05026696 -0.021114029 0.0014876518
000230 d9 20 80 39 fb f7 4d bd 83 8e 39 bb 8e 5a d2 bc
       0.00024438536 -0.05028532 -0.0028313703 -0.025677945
000240 66 ca 9a 3d d8 81 8c bc 9b be 8c 3c dc de a2 bc
       0.07558136 -0.017151758 0.017180732 -0.019881658
000250 40 e4 05 bb 2d 6f d9 ba cd bb 19 3d 89 d0 d1 3c
       -0.0020430237 -0.0016588919 0.037532616 0.025612133
000260 82 4c bd bc f5 fe 4a bd 76 7b 03 bc 17 9f d0 3b
       -0.02310777 -0.049559552 -0.008025041 0.0063666212
000270 6c d3 29 bd cb 9e e5 bc 26 ec dd 3a 6e 2b 67 3b
       -0.041461393 -0.02802982 0.001693134 0.003527369
000280 57 68 96 ba 1e 8d 05 bd 59 cc 9e 3c e3 0b 18 bb
       -0.0011475187 -0.032605283 0.01938455 -0.0023200444
000290 3d f9 d4 3c d9 a3 be 3a e1 a2 b3 bc 2b 3c f6 bc
       0.025997752 0.001454468 -0.021928253 -0.030057987
0002a0 53 fa 7e 3d 9d b0 8f bb 63 e6 4c 3c c6 a9 4d bc
       0.062250447 -0.0043850676 0.0125061 -0.012552684
0002b0 79 3c ac bc cb 59 87 bd 7f 0d 9b 38 77 b6 89 3c
       -0.02102493 -0.066089235 7.39349e-05 0.016810639
0002c0 bf c8 53 3d b3 2e 8a bc 16 9e e4 bc 53 a4 e1 bc
       0.05170512 -0.016867971 -0.027907412 -0.027544176
0002d0 a7 35 ac 3d 29 ba 23 3d 07 94 da 3c ce f3 16 3c
       0.08408671 0.039972458 0.026681913 0.009213401
0002e0 ed 40 8b bd 05 97 16 3c d5 df bd 3d 22 fd f6 bc
       -0.06799493 0.009191279 0.09271208 -0.03015
0002f0 61 40 3d bd e1 0d f2 bc 4f f2 01 bd b0 fb 44 bd
       -0.046203975 -0.029547634 -0.031725224 -0.04809159
000300 ed 4f 91 bd fc 99 04 bd b7 7c 57 bc 32 de 96 bb
       -0.07095323 -0.032373413 -0.013152293 -0.0046041245
000310 d3 50 b7 bd f9 79 f7 3c 95 ea 2a bd d4 dd 05 bd
       -0.08950963 0.030209528 -0.04172762 -0.032682255
000320 a5 8f bf 3c b8 7d 55 bc 54 cb 14 3c 75 31 95 bd
       0.023383925 -0.013030462 0.00908168 -0.07284824
000330 0b 51 7b 3d 20 a6 69 3d 35 9d b1 3b 20 e3 d5 ba
       0.061356585 0.057043195 0.005420352 -0.0016318299
000340 d7 12 31 bd 0d 98 80 bc 96 b9 13 3d b8 55 40 3d
       -0.043230858 -0.015697503 0.03606566 0.046956748
000350 1b a1 5b 39 70 73 f4 bc 26 69 45 bb 62 77 e8 3c
       0.00020945484 -0.029840201 -0.0030122488 0.028377239
000360 b9 2f 9e bd 75 d5 9e 3c 20 6b e4 bc b4 cc 1c 3b
       -0.07723946 0.019388894 -0.027883112 0.0023925724
000370 5d e9 fc 3c 5d 78 c5 3c 3b ba 46 3d ff 7b 68 bb
       0.030872995 0.024105245 0.048517447 -0.0035474298
000380 9a 0a 27 3c c1 36 15 bc f0 a0 df 3a 9d a7 87 3c
       0.010195399 -0.009107293 0.0017061513 0.016559416
000390 12 59 43 bd 51 d8 38 bd ce 47 3e bd e9 99 e0 3b
       -0.047692366 -0.04512817 -0.046455197 0.006854285
0003a0 ff 94 b9 bc ff e2 5e bc 19 cd 4c 3d 76 5c 78 3d
       -0.022654055 -0.013603925 0.050000284 0.060635053
0003b0 b0 60 ae bc dd 3a 16 bd a6 2e 0a 3d 5f ce a8 3b
       -0.021286339 -0.03667723 0.033735894 0.0051515545
0003c0 d9 2b 3f bc ff e8 e5 bc b7 d0 d4 3c b4 c4 c7 bb
       -0.011668169 -0.028065203 0.02597843 -0.006096447
0003d0 c4 51 c0 3d f2 09 26 bc 73 97 29 3c ab 91 cc 3b
       0.093905956 -0.010134207 0.01035105 0.006242951
0003e0 fe fc 81 3a c4 44 75 bc a8 3b 91 bb 98 ed 88 3d
       0.0009917316 -0.014970008 -0.0044321604 0.066859424
0003f0 98 d8 00 bb a6 8b 0e bd 0a 73 c4 3d 23 39 df 3c
       -0.001966035 -0.034801148 0.095922545 0.027248925

w1.bias f4 [96]
000000 b7 44 7e 3d 57 8f 95 3d 3f a4 8c bd 08 86 bb bd
       0.06207725 0.073027305 -0.06867265 -0.09156424
000010 6b 94 0e bc 43 ab 60 3c 86 4e d9 bd 52 31 a2 bd
       -0.008702378 0.013712707 -0.1061068 -0.07919563
000020 57 ba b4 3c de 7f 51 3d 32 18 81 bd 07 e3 e7 bd
       0.02206151 0.051147334 -0.06303443 -0.11322599
000030 97 93 7e 3d 84 21 e7 3c 37 ad 98 3d 72 55 9c 3d
       0.06215247 0.028214224 0.07454913 0.07633485
000040 f1 91 b0 3d 90 0b 73 bd 33 60 43 3d 66 2b f7 bc
       0.08621586 -0.0593372 0.047699165 -0.030172061
000050 43 99 1e 3d 23 64 be bb 41 12 b8 bd 6b 70 31 3d
       0.03872038 -0.005810277 -0.08987857 0.0433201
000060 81 c4 2f ba 53 12 4f 3c 8a f1 33 bd f9 22 0b be
       -0.00067050016 0.012638646 -0.04393152 -0.1358756
000070 19 4c 64 3c 0b 10 bf 3c 61 a5 9a 3d bd 56 8f bd
       0.013934159 0.02332308 0.07551075 -0.06998966
000080 8e 89 cf 3d 12 f6 3e 3d 41 8e a1 3d 18 22 27 3d
       0.10133658 0.04662139 0.07888461 0.040804
000090 98 3c 09 be ff 9a 46 bd be 3c 91 3d ce 66 b5 bd
       -0.13402021 -0.04848766 0.07091664 -0.08857499
0000a0 de 79 a1 3d 2d db 72 bd d6 57 a0 3d 87 62 0f be
       0.078845724 -0.059291054 0.078292534 -0.14002429
0000b0 ce 7d b5 3d 02 50 c0 bd dc e0 da bd 12 62 b2 3c
       0.08861886 -0.0939026 -0.1068742 0.02177528
0000c0 4e ba 86 3d 36 0c b2 3c ab eb de 3b 6f 97 5f 3c
       0.065785035 0.021734338 0.006802996 0.013646944
0000d0 af b3 c9 bd 40 03 7a 3d d3 8d 72 3d 27 51 d5 bd
       -0.09848725 0.061038256 0.059217285 -0.10415869
0000e0 f7 0c cb bc e0 57 97 3d 36 b8 1e bd 79 d4 8a 3d
       -0.024786456 0.07389808 -0.038749896 0.06778807
0000f0 a7 9b b2 3d 2b eb 48 3d 8b a3 11 bd 24 24 ac bd
       0.087210946 0.0490524 -0.035556357 -0.08405331
000100 55 73 d1 3d 9a 8b 17 bd 80 c4 a8 bc 2a a2 0a 3d
       0.10227076 -0.03699837 -0.020601511 0.033846058
000110 c9 d2 bb 3d 85 31 86 bd e3 b0 9f bd 85 0a 93 bd
       0.091710635 -0.06552414 -0.0779741 -0.07179741
000120 3c 7c 24 bd 95 ed 0c 3d 5e 1b df bd f0 3c 84 3d
       -0.04015754 0.034406263 -0.10893892 0.064569354
000130 82 84 f8 bd a9 a3 84 3c 50 90 b1 3d d1 08 02 be
       -0.12134649 0.01619132 0.086701035 -0.12698676
000140 0c 3f b7 3d 89 b6 a7 bd cf a8 c0 bd e4 75 50 3d
       0.08947572 -0.08189113 -0.09407198 0.05089368
000150 32 3d 68 bd 8d 95 24 3d 6f df 5c bd fa 32 53 bd
       -0.056698985 0.040181685 -0.05392402 -0.051562287
000160 7e 3a 0e 3c 52 1e 41 3c e0 28 b5 3d a6 f5 27 3c
       0.008680938 0.011787014 0.08845687 0.010251438
000170 1e 5f 2a bd fe 10 a9 3b 65 78 47 bd 9d 8d 4b 3d
       -0.041594617 0.0051594963 -0.0486988 0.0496956

w2.weight f4 [12, 96, 1, 1]
000000 11 1c 4e 3c 64 9f f4 bc ca 79 0a bd 57 20 d4 bc
       0.012579934 -0.02986116 -0.033807553 -0.025894327
000010 57 f2 e3 3c 96 35 69 3b 4f fd 25 3d 95 b8 da bb
       0.027825518 0.0035584918 0.040524777 -0.006674836
000020 71 32 04 3d 54 b7 80 bc 56 d8 d3 bc cd 00 83 3d
       0.032274667 -0.015712418 -0.025859993 0.06396637
000030 53 5d e6 ba d2 2c c6 3b 94 d7 b0 bb ea 67 8e 3c
       -0.001757542 0.0060478235 -0.0053967927 0.017383534
000040 9c f9 77 bc 58 0a 46 3d 1e e5 30 bd 69 a3 0a 3d
       -0.015135195 0.04834971 -0.043187253 0.033847246
000050 e0 64 0a 3d 8d 43 93 bc 0d 0a c7 bc f2 e1 18 bd
       0.03378761 -0.017976547 -0.024296785 -0.037324853
000060 aa 1e 27 3c e1 02 be bc 19 a9 33 bd de 1c a1 3c
       0.010200182 -0.023194732 -0.043862436 0.019667085
000070 30 df 01 3d d8 76 71 bc d8 48 a9 3c 38 ca 32 bd
       0.03170699 -0.014737807 0.020664617 -0.043649882
000080 42 fd 57 bc d2 02 63 bd ba 1d 1a 3d 56 80 f5 bc
       -0.01318294 -0.05542261 0.037626006 -0.029968422
000090 32 8b 1b bd ce 70 a9 bc a0 fe da bb 61 16 27 3d
       -0.037974544 -0.020683672 -0.0066831857 0.040792827
0000a0 5b 58 8e 3c cc 1f 0e bd 36 04 10 bc 82 b3 10 bd
       0.017376116 -0.034698293 -0.0087900665 -0.035327442
0000b0 d1 d3 91 3c 17 cd ab bb 81 68 10 3d 4f 5a c5 3a
       0.017801197 -0.0052429545 0.035255913 0.0015056821
0000c0 77 42 44 bd b7 f4 4c bc 7e d3 3b 3d dd 00 02 3d
       -0.04791495 -0.012509516 0.04585599 0.031739105
0000d0 48 b6 2c 3c 04 87 03 bd 2a b2 e7 bb fa 0b b0 3c
       0.010541506 -0.032111183 -0.0070707994 0.021490086
0000e0 aa 4e 1e 3d e3 f5 32 3d dd ee c3 3c 98 52 84 3a
       0.03864924 0.043691527 0.02391761 0.0010095416
0000f0 68 27 24 bc f3 6f b0 bb c8 5a 8a bb 9c 27 c2 3a
       -0.010019161 -0.005384439 -0.0042222477 0.001481283
000100 93 83 ea 3c c0 0d aa bc a9 69 1e 3d a7 db 63 bb
       0.028627193 -0.02075851 0.038674984 -0.0034768374
000110 de 0a 4f bb 0c bc 8d bc 41 44 7c 3b 74 81 24 bb
       -0.003159217 -0.017301582 0.003849283 -0.0025101574
000120 8a 59 fd bc 69 2d c5 bb b1 2e f0 3c 3b f4 0b 3d
       -0.030926485 -0.006017376 0.02931914 0.034168463
000130 28 4b a4 bc 55 26 c5 3c c3 f0 c0 3b fb ef 16 3d
       -0.020055369 0.02406613 0.005888076 0.036849957
000140 62 9b 6f bc 4c dd 75 3d 3d 57 3c 3c 6c a1 f6 3c
       -0.0146244485 0.0600255 0.011495409 0.030106269
000150 d1 6a 38 bc 52 f6 a9 3c 9a 4d 23 bd 56 51 be 3c
       -0.011255936 0.020747337 -0.03986893 0.023232143
000160 0a d5 ba 3b d7 c3 c7 bb d8 f3 47 3c 99 63 81 bb
       0.0057016658 -0.006096344 0.012204133 -0.0039486405
000170 a4 3d 9f 3c b5 c5 43 3d 54 7a 32 bc 3c 18 ef 3c
       0.019438572 0.04779597 -0.010893423 0.02918636
000180 09 24 6f 3c 71 9c 2e 3d 91 94 94 bc 8f fe 06 bc
       0.014595994 0.042629663 -0.018137248 -0.008239402
000190 ea 5d ad 3c b3 06 1d bb d6 3a 14 3d 08 52 5b bc
       0.021162946 -0.0023960292 0.036188923 -0.013386257
0001a0 29 21 aa 3c f4 84 92 bc f5 a9 07 3c 8d 17 7e 3d
       0.020767765 -0.017885663 0.008280267 0.06203418
0001b0 8b 86 4f bc 20 92 b7 3c c9 63 f0 3b 5a 44 83 bb
       -0.012666355 0.022408545 0.007336114 -0.004005951
0001c0 e6 fb 4c bc 91 eb 8e 3d aa 97 05 bd 87 51 ea 3c
       -0.012511229 0.069785245 -0.03261534 0.028603328
0001d0 37 a3 8d 3c 4d 95 d7 bb c0 34 c3 bc 5e 4e 63 bc
       0.017289741 -0.0065790773 -0.023828864 -0.013873665
0001e0 4b c2 31 3c 6f fd 92 bc 25 09 cf bc a3 7c e2 3b
       0.010849546 -0.017943112 -0.025272915 0.0069118305
0001f0 0a 82 0c 3d d0 e1 b4 bc 05 79 8f 3c 66 87 ac bc
       0.034303702 -0.022080332 0.017513761 -0.021060657
000200 b0 98 8c 3c eb fd e2 3c 4c 22 cb 3c df fc 20 bd
       0.01716265 0.027708968 0.024796627 -0.039303657
000210 ab db dd bc a7 82 10 bd ba 54 25 bc 8b fa a5 3c
       -0.027082285 -0.03528085 -0.010091001 0.02026107
000220 0d 4d 73 3c a4 36 9e bc 33 3a b5 bc e7 41 f6 bc
       0.014849913 -0.019313164 -0.022122478 -0.030060722
000230 44 40 71 bc e8 9c 02 bc c4 8a 37 3d 51 f2 80 bb
       -0.014724795 -0.00797198 0.04481007 -0.0039351364
000240 e0 cc cf bc ae 40 7e 3c c7 61 76 3b d3 fe ad 3c
       -0.025366247 0.0155183505 0.00375949 0.021239674
000250 73 da 9b bb 52 0e a4 bc 89 82 8c bc 7a 7e d6 3c
       -0.004756266 -0.02002636 -0.017152088 0.026183356
000260 1c d8 ab 3b 9f 8d dd 3c 72 74 99 3c 81 5a b6 bb
       0.005244268 0.02704507 0.018732283 -0.005564988
000270 f6 29 85 bb 5c 94 11 bd 01 1e 56 bb 81 69 52 3c
       -0.00406384 -0.035541877 -0.0032671692 0.012842537
000280 92 7f 6a 3c ba 3f 70 bc 77 fb b5 3c 28 6a 35 bd
       0.014312642 -0.014663631 0.022214634 -0.04429069
000290 7a cf ad bc 72 35 42 bc 0d 6d 7f 3c 88 1b f3 bb
       -0.021217097 -0.011853563 0.015589965 -0.0074190535
0002a0 7d 54 c9 bc ba 5a 49 3d 53 1a 27 3c 45 b7 1b 3c
       -0.02457642 0.04915879 0.010199147 0.009504144
0002b0 bc 41 8e bc 2c 61 a0 3c 37 65 e5 bb 49 00 33 3d
       -0.017365329 0.019577585 -0.007000591 0.043701444
0002c0 9c 90 3e bc c8 2d 92 3d b6 b6 84 3c f8 ba 21 3d
       -0.011631157 0.07137638 0.016200405 0.039484948
0002d0 1b a6 d4 3a 89 8b 11 3c 2a 8c 1d bc ec 23 4a 3c
       0.001622382 0.008883365 -0.009615937 0.012337666
0002e0 a4 81 bc bc 7b ae 96 3c 70 b2 95 3c e5 d2 55 3d
       -0.023011036 0.018393746 0.018273562 0.052203078
0002f0 4c 34 80 3c f4 a5 62 3c 20 b0 85 3c f9 ae 15 3d
       0.015649937 0.013833512 0.016319335 0.03654382
000300 1a 6a 0f 3c 4d 03 f5 3c e5 79 3f bd ff 14 b6 bc
       0.008753324 0.0299088 -0.046747107 -0.022226809
000310 87 3b 13 3c 33 71 28 ba d0 a2 2e 3b 01 c1 29 3c
       0.00898636 -0.00064255594 0.0026647337 0.010360957
000320 45 72 25 bc f8 20 1c bb 61 a9 41 bd 25 1f 3a 3d
       -0.010098045 -0.0023823362 -0.047280673 0.045439858
000330 e6 b1 53 3c c3 5b db 3b 5f c6 1d 3d 54 e8 63 3c
       0.012920832 0.0066942885 0.03851926 0.013910372
000340 3a 04 1b bc d0 3d 29 3c fd 96 ef bc 9e e3 e8 3c
       -0.009461457 0.010329679 -0.029246802 0.028428849
000350 73 51 46 3d a2 35 42 3b c5 f0 07 bd d3 2e 14 bd
       0.04841752 0.0029634018 -0.0331886 -0.036177468
000360 0c 68 07 3c 08 03 e3 bc 4f 51 22 bd bd 60 1e bc
       0.008264553 -0.027711406 -0.039628323 -0.009666619
000370 32 b9 10 3d ef d0 13 bd 46 dd 82 3c 15 b4 86 bc
       0.035332866 -0.036087926 0.015974652 -0.016443292
000380 3c ec 22 ba 66 ba 6d 3b 2b b4 3f 3d 58 d1 90 bd
       -0.0006215011 0.0036274432 0.04680268 -0.07071179
000390 4f b2 1b bd c9 51 01 bd f7 bc 96 3c be 71 92 bb
       -0.038011845 -0.031572137 0.018400652 -0.0044691255
0003a0 fa e1 05 3c 9e 36 34 bd 5a 06 52 bc 75 49 0d bd
       0.008171553 -0.0439974 -0.012818897 -0.034493882
0003b0 d6 ac 75 bb 76 c8 0a 3b 3a c3 98 3c 83 bc 14 3c
       -0.0037487051 0.0021176613 0.018647779 0.009078148
0003c0 50 c1 2b bd 64 d1 02 bd fd 74 c5 3c e5 25 6b 3c
       -0.041932404 -0.03193797 0.024103636 0.0143522965
0003d0 3a 68 3f bc 89 9a 0b bd 4e d6 9e bc 37 34 58 3b
       -0.011682564 -0.034082923 -0.019389298 0.0032990107
0003e0 95 e8 1c 3c cb 4d a6 bc 49 95 8e 3c 42 07 17 bc
       0.009576936 -0.020300766 0.01740517 -0.009218039
0003f0 b9 7e 3e 3c 00 54 34 bd fe b4 0b bc e8 c2 56 3c
       0.011626893 -0.04402542 -0.008527039 0.013107993
