textures/trained_models/Noise-NCA/blue_spiral_Rinv/weights.pt (torch, 16605 bytes, 3 tensors)

w1.weight f4 [96, 24, 1, 1]
0.037734702 -0.0104708085 0.016163781 -0.01650875 -0.012464645 0.024818134 -0.032940384 0.03227861
-0.027697256 0.01602554 0.042280708 0.022472586 0.006218431 -0.0027988479 0.0045811078 0.016647559
-0.00720424 0.029855222 -0.008083226 0.0066822823 0.028041834 0.04213355 -0.004785806 0.0064585367
-0.013287798 0.058765624 0.014015565 -0.051306248 0.0015568903 0.0019400353 0.06409695 -0.039389268
-0.023168763 -0.02020528 -0.0017030681 0.027752366 0.008011976 -0.019745514 0.010883282 0.004638221
-0.006357242 0.010849624 -0.027587507 0.001626183 -0.011815639 0.001260484 -0.0067147026 -0.026348537
0.0030388932 -0.006192387 -0.01960772 0.04129665 -0.037442286 0.0015112438 -0.021809863 -0.03184875
0.017518053 -0.02377556 0.032376442 -0.048997164 0.013012425 -0.01667684 0.012799277 0.015343586
0.013541148 0.07695476 0.0027193725 0.03453942 -0.010905636 -0.057747744 0.005528218 -0.0024541744
0.027740518 -0.0018192406 -0.0013583291 0.03105724 0.025400558 0.0051565967 -0.014393252 0.024668809
-0.048296344 -0.016954932 -0.018426685 0.0040270532 0.05489798 -0.020213362 0.030734956 -0.021980533
-0.009752592 -0.037495725 -3.700469e-05 0.032266878 0.028893143 -0.011504091 -0.031155804 0.044147898
-0.0230819 0.032669608 -0.061515823 -0.0088354405 0.06308308 -0.018396214 0.030089894 -0.028449794
0.030726912 0.02032954 -0.009757944 0.059084035 -0.015327016 -0.05798668 0.009050104 0.05039462
-0.0020065408 0.028063903 0.010818635 -0.06919756 -0.04639578 -0.05283964 -0.014841699 0.073846206
0.007769744 0.03828026 -0.03117177 0.011198788 0.003244631 0.04693988 0.026837507 -0.013944137
0.026888259 0.036310084 -0.000655042 -0.046532582 0.0050756177 0.020939773 -0.06384812 0.06455517
0.021458732 0.03845041 -0.008596705 0.05166804 0.031094125 0.040790603 0.015463961 -0.015420291
-0.06053175 0.051574614 -0.045946546 0.08122813 0.031256437 -0.0027260352 -0.030469595 -0.05090783
0.0016460753 0.0059755906 0.010949011 -0.023814922 0.02417206 0.017992565 0.02707361 -0.023340276
-0.07617019 0.037571132 -0.04788595 -0.0041257883 -0.003774002 0.014163323 -0.054259602 -0.01901195
-0.06310216 -0.0010322705 -0.013906896 0.09914041 0.04946234 0.047473338 0.016482731 -0.026127651
0.026876891 -0.016811209 -0.011797296 -0.0027594154 -0.037775792 0.044682138 -0.02235658 0.026254201
0.07307769 -0.037532445 0.002084615 0.0036610079 -0.029661955 0.032553293 0.04096227 -0.05249242
-0.045984786 -0.005401372 -0.070237115 -0.026474446 0.012309426 -0.035946768 -0.036341555 -0.023943935
-0.0029660005 0.004682877 0.042382978 -0.006389485 -0.03291553 0.0059559685 -0.018563613 -0.022716329
-0.013832795 -0.044892184 -0.03832007 0.015568533 -0.036907278 0.0036451595 -0.010872728 0.0029786369
0.02469246 -0.039965935 -0.020620855 0.018428192 -0.027873969 0.015229858 0.01861915 0.036649033
-0.0043350337 -0.01227421 -0.009756132 0.03470165 -0.009078362 0.05165144 -0.027705839 0.0020373547
0.011887539 0.020596622 0.016899753 0.01882255 0.042237118 -0.017782783 0.047758326 0.0141706355
0.07914543 -0.017843947 -0.0065779546 -0.044178296 -0.044187494 0.018956283 -0.04300255 -0.0077068782
-0.038001113 0.025728757 -0.0027216116 -0.0073041325 0.06217094 -0.029782636 0.044346746 -0.020886116
00000000: b48f 1a3d c18d 2bbc e869 843c 5c3d 87bc
00000010: 8338 4cbc 664f cb3c 7fec 06bd 9336 043d
00000020: 5be5 e2bc fe47 833c 892e 2d3d 6e18 b83c
00000030: fbc3 cb3b e06c 37bb 1e1d 963b 7660 883c
00000040: 8c11 ecbb f092 f43c 826f 04bc 0cf7 da3b
00000050: fdb7 e53c 3b94 2c3d 40d2 9cbb 22a2 d33b
00000060: 10b5 59bc 39b4 703d 8aa1 653c 8026 52bd
00000070: 9210 cc3a c848 fe3a 4345 833d a456 21bd
00000080: 6bcc bdbc 8b85 a5bc 7c39 dfba ee58 e33c
00000090: aa44 033c 58c1 a1bc cb4f 323c 38fc 973b
000000a0: 6950 d0bb 9fc2 313c 32ff e1bc a625 d53a
000000b0: 6296 41bc d336 a53a 0207 dcbb e3d8 d7bc
000000c0: 2b28 473b 82e9 cabb 5fa0 a0bc ad26 293d
000000d0: 155d 19bd ed14 c63a 99aa b2bc d673 02bd
000000e0: 0582 8f3c f7c4 c2bc 299d 043d 40b1 48bd
000000f0: 1132 553c de9d 88bc 0fb4 513c aa63 7b3c
00000100: b1db 5d3c 759a 9d3d 8037 323b 3579 0d3d
00000110: 8dad 32bc e688 6cbd 0e26 b53b 37d6 20bb
00000120: 1540 e33c 9673 eeba f609 b2ba c16b fe3c
00000130: d514 d03c abf8 a83b add1 6bbc 3e16 ca3c
00000140: 63d2 45bd 12e5 8abc 8ff3 96bc 5ff5 833b
00000150: b4dc 603d 7e96 a5bc e0c7 fb3c 8510 b4bc
00000160: 56c9 1fbc 1e95 19bd 7c35 1bb8 462a 043d
00000170: 50b1 ec3c a87b 3cbc 753a ffbc 6dd4 343d
00000180: 4116 bdbc 91d0 053d 04f8 7bbd 86c2 10bc
00000190: b431 813d a8b3 96bc 157f f63c 8b0f e9bc
000001a0: 01b7 fb3c 238a a63c c9df 1fbc 1a02 723d
000001b0: 2a1e 7bbc 7183 6dbd e346 143c 976a 4e3d
000001c0: 2b80 03bb 45e6 e53c a540 313c 73b7 8dbd
000001d0: 8009 3ebd 616e 58bd 992a 73bc ae3c 973d
000001e0: 5699 fe3b c3cb 1c3d f15b ffbc 1f7b 373c
000001f0: e0a3 543b 0844 403d 55da db3c f375 64bc
00000200: c444 dc3c e2b9 143d 20b7 2bba f398 3ebd
00000210: 5e51 a63b e389 ab3c cec2 82bd 8035 843d
00000220: 39ca af3c 2d7e 1d3d 32d9 0cbc dea1 533d
00000230: 1bb9 fe3c 0c14 273d 8e5c 7d3c 63a5 7cbc
00000240: 24f0 77bd e73f 533d 7232 3cbd ef5a a63d
00000250: c006 003d 48a7 32bb 5f9b f9bc bb84 50bd
00000260: 1fc1 d73a e3ce c33b 7b63 333c 8317 c3bc
00000270: 7c04 c63c 2565 933c 7ac9 dd3c 1b34 bfbc
00000280: 1eff 9bbd 30e4 193d 0f24 44bd 9f31 87bb
00000290: 3f55 77bb 480d 683c 513f 5ebd f3be 9bbc
000002a0: b53b 81bd 404d 87ba c0d9 63bc 210a cb3d
000002b0: 0699 4a3d 6773 423d cb06 873c a809 d6bc
000002c0: ed2c dc3c a9b7 89bc 7249 41bc 4fd7 34bb
000002d0: caba 1abd 9e04 373d 2525 b7bc 0d13 d73c
000002e0: c2a9 953d 9fbb 19bd 099e 083b 85ed 6f3b
000002f0: a1fd f2bc 9a56 053d 0ec8 273d 4b02 57bd
00000300: 8b5a 3cbd fefd b0bb 7ad8 8fbd f0e0 d8bc
00000310: 7aad 493c eb3c 13bd e2da 14bd 1226 c4bc
00000320: 3b61 42bb d272 993b c699 2d3d e35e d1bb
00000330: 6fd2 06bd 492a c33b b812 98bc 9817 babc
00000340: f3a2 62bc dee0 37bd 81f5 1cbd 2913 7f3c
00000350: 162c 17bd a1e3 6e3b 8723 32bc 3c35 433b
00000360: d847 ca3c 52b3 23bd 11ed a8bc b8f6 963c
00000370: f357 e4bc a886 793c 3087 983c 4c1d 163d
00000380: e60c 8ebb c519 49bc 2fd8 1fbc 5123 0e3d
00000390: 69bd 14bc 7690 533d 5bf7 e2bc 2485 053b
000003a0: f4c3 423c 3fba a83c 5a71 8a3c c031 9a3c
000003b0: d400 2d3d 33ad 91bc 3c9e 433d f42b 683c
000003c0: 0017 a23d 782d 92bc e28b d7bb 4df4 34bd
000003d0: f2fd 34bd 354a 9b3c 7123 30bd fb89 fcbb
000003e0: 0ea7 1bbd 1dc5 d23c 115d 32bb 8157 efbb
000003f0: f5a6 7e3d b7fa f3bc efa4 353d 5c19 abbc

w1.bias f4 [96]
0.010727886 -0.18491733 -0.05436916 0.1411741 -0.07724815 -0.12081712 0.08023261 -0.05148744
0.041983854 -0.19295467 0.120206505 -0.0442199 0.092942245 0.10671284 -0.096571326 -0.14556347
0.11405306 0.0991476 -0.095564544 -0.14104748 -0.0054578017 -0.04361875 0.062416896 0.0003541644
0.13682652 -0.03199082 0.113135196 -0.077096626 0.052392624 -0.14831792 0.13538128 -0.026090829
-0.1022792 -0.14677261 -0.108991235 0.14468914 0.16102041 0.083713196 0.0534972 0.0887741
0.09354225 0.018944992 0.014613536 0.03625852 0.12560886 0.024628052 -0.14659576 -0.08351706
0.10411262 -0.18442236 -0.019551666 0.009164893 -0.033960033 -0.15888935 -0.12025103 0.050245322
-0.01751916 0.11380206 0.02528567 -0.13060993 0.1140427 0.032062672 -0.08506335 0.08134835
0.14253704 0.027879192 -0.07363915 -0.018896021 0.029489912 0.09863486 -0.2168042 0.13704579
-0.084165916 0.12568775 0.036925204 -0.0004667971 0.0125248 -0.15598778 -0.05021526 0.1403211
-0.04929682 -0.0843713 -0.1624552 0.14978974 -0.094684094 -0.07241246 0.07284798 0.11378141
0.091318354 0.011180164 0.020032348 0.11505204 -0.04241057 -0.043884225 0.06352884 0.101342894
00000000: 04c4 2f3c f85a 3dbe 32b2 5ebd f18f 103e
00000010: 4734 9ebd f76e f7bd ff50 a43d 7ee4 52bd
00000020: 43f7 2b3d e995 45be d42e f63d ed1f 35bd
00000030: 8158 be3d 438c da3d 30c7 c5bd 970e 15be
00000040: a794 e93d e60d cb3d 58b7 c3bd c06e 10be
00000050: 5cd7 b2bb 93a9 32bd dca8 7f3d 24af b939
00000060: 401c 0c3e ce08 03bd 6db3 e73d d6e4 9dbd
00000070: a699 563d a7e0 17be 64a1 0a3e 6fbc d5bc
00000080: c277 d1bd 8f4b 16be cc36 dfbd 6429 143e
00000090: 89e2 243e d371 ab3d e11f 5b3d 32cf b53d
000000a0: 1493 bf3d 8732 9b3c 9d6d 6f3c d083 143d
000000b0: 9c9f 003e c5c0 c93c 331d 16be fe0a abbd
000000c0: ff38 d53d 37d9 3cbe d12a a0bc 5928 163c
000000d0: ad19 0bbd e4b3 22be 2c46 f6bd 0ace 4d3d
000000e0: 5784 8fbc 0e11 e93d e523 cf3c 9cbe 05be
000000f0: 388f e93d 2654 033d b235 aebd f799 a63d
00000100: 3bf5 113e e762 e43c 1fd0 96bd d4cb 9abc
00000110: d494 f13c 1301 ca3d ec01 5ebe bb55 0c3e
00000120: 2e5f acbd 4ab4 003e e23e 173d 72bc f4b9
00000130: d234 4d3c 43bb 1fbe 84ae 4dbd 56b0 0f3e
00000140: 76eb 49bd dcca acbd a85a 26be 7b62 193e
00000150: bce9 c1bd fc4c 94bd 5231 953d 3a06 e93d
00000160: 1e05 bb3d 022d 373c e11a a43c 67a0 eb3d
00000170: b5b6 2dbd f2bf 33bd 691b 823d dd8c cf3d

w2.weight f4 [12, 96, 1, 1]
-0.021916784 0.04470277 -0.0063336594 0.00688966 0.029989984 0.042759083 0.031256523 0.036804568
0.004624781 -0.011042502 -0.019371413 -0.014970691 0.0046273237 -0.018890249 -0.029495867 -0.0047597424
-0.0019932087 0.011407361 -0.023971397 0.035390895 0.0135432305 -0.03662295 -0.01840139 -0.0048458576
-0.01165874 0.042544328 -0.009560717 -0.022608276 0.01615038 -0.0012812807 0.0066777943 -0.008932566
0.015611804 -0.012947209 0.026845524 0.005167216 -0.0051956205 0.008727632 -0.016272472 -0.010412259
0.0018341021 0.031920016 0.02222456 -0.040075075 -0.02147189 -0.005311052 0.007467789 -0.010996146
-0.013498755 0.046820242 -0.015894048 0.00559673 -0.038142394 -0.0030969547 0.011884993 -0.0027363822
0.006217785 -0.0071711247 -0.018999787 -0.00611608 -0.021430554 -0.0022944966 -0.004838476 -0.037887346
-0.012071457 -0.018662177 0.028072612 0.010665915 -0.0017802865 -0.019964356 -0.011406206 -0.007510938
-0.00966658 -0.012738006 0.003249948 -0.025819119 -0.0023506582 -0.010568496 -0.017877823 0.01828211
-0.010697702 0.032016486 0.047769792 0.008036863 0.00872378 0.031675767 -0.032261524 -0.00093519886
0.01760446 0.021604203 -0.0174713 -0.0038068288 -0.003201932 -0.010252377 0.006477973 -0.0015970066
-0.013045903 -0.03991083 0.032697275 -0.005623932 -0.001220911 -0.020410294 0.011865943 0.020814082
0.011053729 0.005912242 0.0027227616 0.063130386 0.0069830692 0.0075048693 0.04592746 -0.017340358
-0.0066114743 0.00801148 -0.005085635 -0.015355779 -0.0013505549 0.03046189 -0.011827615 0.03342419
-0.0139110135 0.0017320771 -0.0068052583 0.048409835 -0.009281922 -0.023946818 -0.02043682 0.008225042
0.023403129 0.004298552 -0.026548317 0.00065641874 0.007996703 0.013458391 0.017313734 -0.0095107695
0.0040477226 -0.027971784 0.008519087 0.039904013 -0.0009913984 -0.011100465 -0.012110213 0.045671124
-0.002135943 -0.052090257 -0.022996953 -0.014597201 0.0436515 -0.003390281 -0.07673812 -0.033184964
0.031570267 -0.006924611 0.006281562 0.016979674 -0.006994496 -0.0033612205 0.037481915 -0.0006200572
0.006982587 -0.010880485 0.004402975 -0.012925839 0.031712584 0.0109429695 0.007815066 -0.0027270573
0.035106346 -0.00062835077 -0.015694402 -0.007188103 -0.027071487 0.006637726 0.004404766 -0.016695797
-0.008624377 0.02294103 -0.01691769 -0.000441947 -0.010252576 -0.06328154 0.0024253638 -0.008716285
0.01883642 -0.010680705 0.0006701262 -0.0009350637 0.0020713883 0.056157265 -0.016436549 0.009525585
0.006557146 0.0062371683 0.0037197887 -0.0113114705 -0.02958084 0.010005471 -0.013582362 -0.0010420245
-0.02377468 -0.008239489 0.006660159 0.008173447 0.0014563743 -0.005015595 -0.025593087 -0.007974891
-0.00044778205 0.0068253796 0.007941245 -0.0017436348 -0.011351968 -0.003962352 0.007661622 -0.00631687
0.0019735487 -0.018222572 0.0004133598 -0.001577513 -0.0048664613 0.0060928348 0.013641254 -0.01335513
0.021907229 0.009823305 0.04035002 -0.0052060606 -0.021381268 0.00916154 -0.008970421 0.00061598374
0.023319043 0.016680066 -0.0040836902 -0.023205321 -0.0035023224 -0.0034554333 0.014422373 -0.004484171
-0.0073943674 0.047741126 0.0033022787 0.028590271 -0.02131939 -0.017038682 -0.029911522 0.009338557
0.04014447 -0.005454645 -0.025086178 -0.010077374 -0.008589105 0.006439211 -0.014720693 -0.004546546
00000000: d48a b3bc 401a 373d 968a cfbb a8c2 e13b
00000010: 8ead f53c 2624 2f3d d706 003d 63c0 163d
00000020: 7a8b 973b 9ceb 34bc ccb0 9ebc a147 75bc
00000030: cea0 973b b9bf 9abc 51a1 f1bc 9df7 9bbb
00000040: 7ea0 02bb f1e5 3a3c aa5f c4bc 0bf6 103d
00000050: 6de4 5d3c f201 16bd 83be 96bc 00ca 9ebb
00000060: 4d04 3fbc f642 2e3d 8ea4 1cbc fe34 b9bc
00000070: cd4d 843c a5f0 a7ba 66d1 da3b e659 12bc
00000080: a7c8 7f3c 8820 54bc 25eb db3c c051 a93b
00000090: 0640 aabb 58fe 0e3c d94d 85bc 2e98 2abc
000000a0: 4166 f03a 90be 023d 4810 b63c c325 24bd
000000b0: d1e5 afbc 5508 aebb 5bb4 f43b 2e29 34bc
000000c0: e229 5dbc 95c6 3f3d 3c34 82bc c664 b73b
000000d0: 333b 1cbd 47f6 4abb 46b9 423c e054 33bb
000000e0: 90be cb3b c1fb eabb 71a5 9bbc 6669 c8bb
000000f0: 218f afbc 445f 16bb 148c 9ebb c32f 1bbd
00000100: 5cc7 45bc 6ce1 98bc 89f8 e53c 17c0 2e3c
00000110: 8158 e9ba 4a8c a3bc 18e1 3abc 511e f6bb
00000120: 9360 1ebc 12b3 50bc 14fd 543b 9e82 d3bc
00000130: 800d 1abb 7c27 2dbc 8374 92bc 5dc4 953c
00000140: 6a45 2fbc b823 033d 42aa 433d 0cad 033c
00000150: 2fee 0e3c 73be 013d a924 04bd 2228 75ba
00000160: 3a37 903c 4cfb b03c f91f 8fbc fd7b 79bb
00000170: 81d7 51bb 96f9 27bc 2d45 d43b a652 d1ba
00000180: 7cbe 55bc 8a79 23bd 94ed 053d f648 b8bb
00000190: fa06 a0ba 7d33 a7bc 5f69 423c 4b82 aa3c
000001a0: b31a 353c 7bbb c13b 5c70 323b 814a 813d
000001b0: 3bd2 e43b 68eb f53b 6f1e 3c3d 5e0d 8ebc
000001c0: 11a5 d8bb 9542 033c 66a5 a6bb ce96 7bbc
000001d0: 1a05 b1ba 378b f93c 9dc8 41bc cee7 083d
000001e0: 05eb 63bc dd06 e33a a5fe debb 6449 463d
000001f0: 3413 18bc 1e2c c4bc 1e6b a7bc 54c2 063c
00000200: ebb7 bf3c deda 8c3b db7b d9bc 8413 2c3a
00000210: 9a04 033c 9580 5c3c 88d5 8d3c 0fd3 1bbc
00000220: c2a2 843b 1525 e5bc a493 0b3c 6472 233d
00000230: cff1 81ba bade 35bc ea69 46bc a511 3b3d
00000240: 2dfb 0bbb 985c 55bd 1b64 bcbc 1929 6fbc
00000250: eacb 323d 7a2f 5ebb e028 9dbd f5ec 07bd
00000260: d34f 013d d9e7 e2bb 90d5 cd3b f518 8b3c
00000270: 1632 e5bb ec47 5cbb a386 193d 568b 22ba
00000280: 2fce e43b 1044 32bc d546 903b e6c6 53bc
00000290: 0ee5 013d 244a 333c c30a 003c 6eb8 32bb
000002a0: accb 0f3d e8b7 24ba 8c91 80bc 2e8a ebbb
000002b0: 06c5 ddbc 4881 d93b db55 903b a0c5 88bc
000002c0: 424d 0dbc d4ee bb3c f896 8abc 1fb5 e7b9
000002d0: 6cfa 27bc c199 81bd daf2 1e3b c0ce 0ebc
000002e0: d64e 9a3c 20fe 2ebc 68ab 2f3a 101f 75ba
000002f0: 21c0 073b 2905 663d f1a5 86bc 3311 1c3c
00000300: 54dd d63b 2961 cc3b b3c7 733b bf53 39bc
00000310: 8553 f2bc fded 233c 8e88 5ebc 8a94 88ba
00000320: 1ec3 c2bc ecfe 06bc 773d da3b ece9 053c
00000330: d0e3 be3a dc59 a4bb 98a8 d1bc 1ea9 02bc
00000340: 4ac4 eab9 6fa7 df3b ff1b 023c ad8a e4ba
00000350: 9bfd 39bc 9ed6 81bb 580e fb3b bffd cebb
00000360: a756 013b 8147 95bc 37b8 d839 8dc4 ceba
00000370: d676 9fbb 67a6 c73b 917f 5f3c 7acf 5abc
00000380: ca76 b33c edf1 203c 1046 253d 9a97 aabb
00000390: c527 afbc 491a 163c acf8 12bc f879 213a
000003a0: 9407 bf3c a2a4 883c 7ad0 85bb 1619 bebc
000003b0: 3887 65bb 8d74 62bb d14b 6c3c f4ef 92bb
000003c0: 734c f2bb 338c 433d 0b6b 583b 2536 ea3c
000003d0: 00a6 aebc b594 8bbc 0209 f5bc bf00 193c
000003e0: 876e 243d e1bc b2bb 8781 cdbc 921b 25bc
000003f0: 51b9 0cbc 0400 d33b 102f 71bc 31fb 94bb
