textures/trained_models/Noise-NCA/burst/weights.pt (torch, 25821 bytes, 3 tensors)

w1.weight f4 [96, 48, 1, 1]
00000000: 73f9 f73c fd9a 5a3d 3efc ad3d 1cef 4cbd
00000010: bc94 36bc 1e61 dcbc 691a 043d b80c 633b
00000020: 5234 38bd 79cd 4abd fb52 4ebd 08f3 043b
00000030: b9b5 cf3c 55fb 10bd 6ec8 883d 473c e2bc
00000040: 672a c3bc 329d 393d 6b5e d83c 0b37 423b
00000050: f636 2dbd 3805 8f3c 1b97 5bbc f130 683c
00000060: 2344 3b3d 2979 623d 883c 69bd 7558 11bd
00000070: 43e1 1ebd 4be5 83bd 11e1 99bd 82a7 f8ba
00000080: 1630 0cbd 2177 333c 5b75 99bd ba87 2f3c
00000090: 353e 853d 7a09 0cbc 1dd8 0b3c 46e6 74bd
000000a0: 0e9d 06bc ffa4 5bbd 18d2 1739 8b81 de3a
000000b0: b773 17bd b2aa 98bd 5fc5 2dbd dcc0 7bbd
000000c0: f441 9dbd bb0d c83d 0b3f 6c3c dd81 b83b
000000d0: 988b 9bbc 7526 0bbe 5ec8 40bd e92b adbc
000000e0: 874d e4bb 22d8 043c e205 54bd 6fa9 82bb
000000f0: 28b1 31bd b6ef 61bc d138 aa3b ff50 85bc
00000100: 08a2 10bd 2111 bebc 7ce8 bb3b 3309 d0bb
00000110: d0c8 e8bc 446f 3b3a 213d 6bbc 94f4 a03d
00000120: 38b5 193d cc12 253d 2d80 1b3c 7838 13bc
00000130: db01 803c 9cfa 2fbd b66f 5ebd 0c20 1a3d
00000140: 26ff 44bd 9cbd a1bb 261a 3d3d 1515 d93c
00000150: 6da7 82bb be4e c83b 6b12 3c3d 3f1e 5a3d
00000160: 2860 4f3d c62e b7bd 99c4 593d 58d1 303c
00000170: 9e27 f4bc 517e aabd 6d84 88bc f08f e53d
00000180: 74fa d2bd 29a5 0f3d abe6 85bd 0cd0 083d
00000190: 3e9e 16bd d0f1 e7bb 801c 8e3d aa89 eabc
000001a0: c11f 13bc 8987 dfbc 85d7 973c 8557 80bb
000001b0: 51e6 8cbc bf9c fdbc bf0b 19bd 5c55 20bd
000001c0: fe03 0bbd bc15 003d 106c dbbc af7b 16bd
000001d0: 2c73 833b 0352 813c 7b6d 94bd a410 11bd
000001e0: 00ea 6b3d 8505 4abd 2566 bcbb 3642 b3bd
000001f0: 01de f9bc 4d67 f8bc 6c36 823d 8ac4 433c
00000200: 9c03 1cbd 064f 833c 721f a7bc c625 3c3c
00000210: 805d 90bc 041c 6c3c 8c17 afbc 38a5 153d
00000220: ecaf a13c f60c 5abc acf2 09bc 1877 823c
00000230: c505 1dbd 4e68 1c3d afcf 053d 1e3f 34bd
00000240: 513b e7bd 4c9e 3b3b c8b9 bdbd d96f 1e3d
00000250: 50d7 e83c 862d 9f3c 638b 13bc 6532 033c
00000260: b68b 2dbd d2a7 4bbd 1c11 443d 679a a4bc
00000270: c3ef 86bc 3e45 60bc e479 31bd cb7f e93c
00000280: ee94 4b3c e0f1 9cbb 0c63 593c d9d1 b23b
00000290: 6899 b5bc 582f b53b d6d0 e6bc 469b bfbc
000002a0: 068b 33bc 4ded c43c 56d0 25bd 7c97 e03c
000002b0: d242 34bd a9f0 0fbd 306a 093c 0975 3a3d
000002c0: dc76 143b b1f7 0dbc 7728 b8bb 06b2 e1bc
000002d0: 50e0 843d 6aad 243d 249e 81bb 39a9 09bd
000002e0: ee74 f83b 45a9 033d 61bf 8dbc b232 69bc
000002f0: a884 0f3d 393b 783d a8fd 103d a653 47bd
00000300: bf29 81bd aed5 e0bb adda 7a3c 7704 123c
00000310: 1735 94bb eb8a abbd 8171 29bc 2838 b63b
00000320: 70cb aebc 96b8 463c 95e8 52bd bf4e 423b
00000330: 2fa5 c3bd fbd2 3c3d 02ed 3c3e a483 14bd
00000340: 487c c6bc e427 cdbb 2113 a03d 070e 30bc
00000350: e9f8 2a3d f0c4 19bd 2ffb 88bd 69ed 023d
00000360: 168c 92bd 9f2a bd3d 0ca9 a63b 798c 47bc
00000370: 8ae5 3ebc 21b9 a03d 7d0c bd3a c231 d6bc
00000380: 3837 1bbd e655 393c 9f6c c3bd 913a 8cbb
00000390: 48b6 b7bc 8227 693d ce48 903c 10a1 25bc
000003a0: fde2 163d d9b2 99bc 77d9 7c3d db19 d3bc
000003b0: eb92 7dbd 4193 ca3d 4db8 3b3d bd38 1dbd
000003c0: 741f 903d 14d0 143d 41ed b13b 45c1 9abc
000003d0: 1c70 cdbd e34d 30bd 957b 613d 967a 3f3c
000003e0: dd70 993c e518 843c ce44 b83b bb4c 02bd
000003f0: e9f3 6abc 0413 a3bd e729 a4bc 7b02 313d
0.030270314 0.053370465 0.08495377 -0.05003272 -0.0111438595 -0.026901778 0.03225175 0.0034645032
-0.04497177 -0.04951236 -0.050372105 0.002028646 0.025355207 -0.03539594 0.06678854 -0.027616633
-0.02382393 0.04531593 0.02641221 0.002963486 -0.042288743 0.017458543 -0.013402726 0.014171825
0.045719277 0.05529133 -0.056942493 -0.03548475 -0.038789045 -0.064402185 -0.07513631 -0.001897082
-0.034225546 0.0109536955 -0.07493087 0.010713512 0.06506006 -0.008547181 0.008535412 -0.05978992
-0.008216156 -0.05362415 0.00014478748 0.0016975863 -0.03697559 -0.074544325 -0.042424556 -0.061463222
-0.07678595 0.09768244 0.0144193275 0.0056307153 -0.018987462 -0.13588889 -0.047066085 -0.021139102
-0.00696725 0.008108171 -0.051763423 -0.003987483 -0.04338184 -0.013790062 0.0051947613 -0.016273974
-0.035310775 -0.023201527 0.0057345014 -0.006348753 -0.028416067 0.0007150064 -0.014357836 0.078591496
0.03752634 0.04030113 0.009491009 -0.008985631 0.015625885 -0.04296361 -0.054305755 0.03762822
-0.04809489 -0.0049359333 0.046167515 0.02649931 -0.003987244 0.0061129024 0.045916002 0.0532515
0.05062881 -0.08944468 0.053166006 0.010792099 -0.029804047 -0.08324874 -0.016664708 0.112090945
-0.103016764 0.03506962 -0.06538137 0.033401534 -0.036772005 -0.007078387 0.0693903 -0.028630096
-0.008979739 -0.027286308 0.018535385 -0.003916683 -0.017199667 -0.030958531 -0.037364718 -0.039143905
-0.033939354 0.031270728 -0.026784927 -0.036739048 0.0040115323 0.015786177 -0.07247444 -0.03541626
0.057596207 -0.04932167 -0.0057494813 -0.08752863 -0.030501368 -0.030322695 0.063580364 0.011948714
-0.03808938 0.016028892 -0.020400736 0.011483615 -0.01762271 0.014410976 -0.021373533 0.036534518
0.019737206 -0.013308754 -0.008419674 0.015925929 -0.03833558 0.03818541 0.032668766 -0.044005506
-0.112906106 0.0028628288 -0.092639506 0.038680885 0.028422982 0.019430887 -0.0090054 0.00800762
-0.042369567 -0.049720593 0.04786788 -0.020093156 -0.01647175 -0.013688384 -0.043329135 0.02850332
0.012425644 -0.004789576 0.0132682435 0.0054571447 -0.022167876 0.0055293255 -0.028175753 -0.02338947
-0.010958439 0.024038935 -0.040481888 0.027415983 -0.044009037 -0.03514162 0.0083871335 0.04552177
0.0022653854 -0.008665011 -0.005620058 -0.027550709 0.06488097 0.040204443 -0.0039556194 -0.03360865
0.0075822985 0.03214385 -0.01730317 -0.014233278 0.03503862 0.060603354 0.035398155 -0.048663758
-0.063067906 -0.00686141 0.015310925 0.008912197 -0.0045229304 -0.08376106 -0.010342003 0.0055608936
-0.021337241 0.01212897 -0.05149134 0.0029648987 -0.09552991 0.046099644 0.18449786 -0.036258355
-0.024229184 -0.006260859 0.078161485 -0.010745532 0.041741285 -0.03754133 -0.066885345 0.031964693
-0.071556255 0.09236645 0.00508607 -0.012179487 -0.011651406 0.078478105 0.0014423277 -0.026146773
-0.037894458 0.011311984 -0.09542202 -0.0042794426 -0.022425786 0.056922443 0.017612841 -0.010109201
0.036837567 -0.018762039 0.061730828 -0.025769165 -0.06190769 0.09891368 0.04583006 -0.038384188
0.07037249 0.03633125 0.005429894 -0.018890986 -0.10031149 -0.04304303 0.055049498 0.011686942
0.018730575 0.016125152 0.0056234365 -0.031811457 -0.014340379 -0.07962611 -0.020039512 0.043215256

w1.bias f4 [96]
00000000: 810c 88bd 8681 b63d a48f f63d 1391 a53d
00000010: 2036 7cbd 23f7 893d 3ad4 83bd d7b6 bbbd
00000020: 63c4 aebd 85eb 9e3d b429 02be 9644 0ebe
00000030: 91a4 4ebc 94f8 3ebc 2904 643d c81e f3bd
00000040: 273e a7bd 8bee dfbc 81f3 aabc fb53 e53d
00000050: 8e1d fabc 49a7 113d d2bd a13d 8712 3abe
00000060: 4b6c a33c f212 97bd a661 b03c 9420 e6bd
00000070: ea0e 72bd d09e d7bc 3c56 25bd 1843 563d
00000080: 7f2c 663d df2b f6bb 056c 87bc 3773 05be
00000090: aed9 d6bc 2c5e 8fbd c63c 27bd 8fd0 aabc
000000a0: f947 2c3b 8e45 dc3d 5ec0 34bc 0b9b 393b
000000b0: f4d8 643d 484e 883d 47af d6bd de87 863d
000000c0: 079a c73d f43f 98bb b351 ad3d 243d b93d
000000d0: 299a 633d 0b51 c5bd 46b4 babd 5e2e 27bd
000000e0: 4a2b 10be a117 07bd d5a7 99bd 6261 a2ba
000000f0: 4a76 1abe 75af 84bc 8440 0dbe 048a cf3d
00000100: b87e b23d 8752 723d 5603 b6bd 010d be3d
00000110: 0cd0 89bd fc7d e93c 1770 ba3d a420 893b
00000120: 3e6a 413d 8287 56bb d956 b2bd a933 c0bd
00000130: a4b3 5b3c f987 b2bd 0d91 d5bd 2381 21be
00000140: a09b 8b3c b4b1 f63d 8670 e43d 8219 a63d
00000150: 795a 593d e28b 423d a9eb f1bd e764 02be
00000160: d59e d4bd 6900 5c3a 3f26 cb3c 630c db3c
00000170: 0369 873c 4653 543c 4a05 e7bd a3c3 7a3d
-0.0664301 0.089114234 0.12039116 0.08084311 -0.061575055 0.06736591 -0.064369634 -0.09165733
-0.085335515 0.077597655 -0.12711221 -0.13893351 -0.012612478 -0.011655945 0.05566803 -0.118711054
-0.081661515 -0.027335426 -0.020868065 0.11197659 -0.03053167 0.035559926 0.078975335 -0.1817113
0.019949099 -0.073766604 0.021530937 -0.112366825 -0.059096254 -0.026320845 -0.040365443 0.05231008
0.05619478 -0.007512554 -0.016531 -0.13032232 -0.026226845 -0.07000384 -0.040829442 -0.020851402
0.0026288016 0.10755454 -0.011032192 0.0028321173 0.055870965 0.06655556 -0.1048265 0.06568883
0.09746175 -0.0046462957 0.084628485 0.09044865 0.05556694 -0.09634598 -0.09116416 -0.040815704
-0.14079013 -0.03298152 -0.075027145 -0.0012388641 -0.15084186 -0.016196946 -0.13794142 0.10133746
0.08715576 0.059160735 -0.08887355 0.09279824 -0.06729135 0.028502457 0.09103411 0.0041847993
0.04722046 -0.0032734578 -0.08707971 -0.093848534 0.013409529 -0.08717341 -0.10428057 -0.15771918
0.017041981 0.12045613 0.11154275 0.08110334 0.053064797 0.047496684 -0.11812527 -0.12733804
-0.10381857 0.0008392395 0.02479851 0.026739305 0.016529566 0.012959307 -0.11280306 0.06122173

w2.weight f4 [12, 96, 1, 1]
00000000: cac7 92bd dc9f 3d3d 1da8 3d3d 0058 683d
00000010: 5657 3dbc 3ba9 f5bc 6cb3 85bd ac12 37bd
00000020: 93e2 56bd 5674 b3bc 33ea a2bd c476 eabc
00000030: d44a 84bb 5cc7 673d e80b 213d 7829 933c
00000040: 2630 13bd c38f db3c 2bc9 0cbd 6b4f 483d
00000050: e9ce 8cbc 6232 f8bc 3f28 093d f14d cbbc
00000060: a373 efbc 61c6 ebbc 95be 6dbc 3ba4 e7bc
00000070: 9b2a c2bb 5282 6d3d 2820 b7bc f178 ed3c
00000080: 952b ad3c 21fa c4bc 68f8 603c 797c c13d
00000090: 2716 243d 4d84 1c3c 06bb 483d 5a61 9abd
000000a0: a840 d53b b7cb dd3a 884d dcbc f6b7 c0bc
000000b0: e3c1 ca3c 4034 00bd 52d2 12bc 3680 ef3b
000000c0: 5ea0 53bc 197e 543d 3d35 2d3d ad84 b8bb
000000d0: 0813 ed3c 5373 66bc 7c0b 4fbd eab1 a53d
000000e0: 54d7 e0bb e0a8 563d e5db f9bc 3932 803d
000000f0: 5f3a 023d fd32 49bd 67d6 3e3d 4f6b db3b
00000100: 4952 40bb 3563 083c d079 cfbd 8ce3 353c
00000110: 534e 0e3d fccf b93c d955 3a3c e41a 51bc
00000120: f5e9 543c a88c c7bc f7d1 583d 2557 e23c
00000130: 72e3 273d 8f57 dd3c 50f8 313d 805d de3b
00000140: 5107 c6bc 1a8d 663c 1494 dcbb 55cd 35bd
00000150: 1f05 473c 6437 5fbd 4b90 203b 3108 f73b
00000160: 788c edbc ce72 413d f98a e0bc 9a3b d73c
00000170: b932 793b aec9 173d 5013 b63c fcf1 79bc
00000180: 6f05 04bd 60fd 953c c575 063c 2d30 8d3b
00000190: 24cd 33bd a51b 0c3d 3c9e aebb f2dc 44bd
000001a0: 152c 4e3c ab00 73bc 606f 94bc 2efa 3dbd
000001b0: 56de 7fbc b7c6 263d 349e 07bd 171d 9cbc
000001c0: 5552 103c 75eb cabc 9bee 6dbc 823b eebb
000001d0: 5da0 d2bb 9cf9 b3bc e5d5 1f3d c6eb 86bd
000001e0: 0489 c9bc f3ba 09bd b1c1 a4bc 4151 333d
000001f0: bea5 b9bc 74dc 343c 01d0 46bd 8dab 81bc
00000200: 4fb1 293d fd6d f438 7e62 57bc a174 373d
00000210: 5ff5 2738 f0c9 723d 21e8 243d a5f3 803c
00000220: 7ffe 643c 424e 313d 7116 aebc f478 003d
00000230: 1c7b 793c ff4d 8e3d cee5 0ebb 8c27 813c
00000240: cfd0 1d3d 93f3 7cbc 85aa e5bc 6690 af3c
00000250: 7af9 053c e4e6 4a3c d226 92bc 933f 52bd
00000260: 1a06 01bd ca4a 9c3c aa3f b5bd e764 e03c
00000270: 6947 50bc ce2c 06bd e05b 413d 8a99 913c
00000280: 4285 39bc f116 a03c 58de babd 1676 303c
00000290: f5dc 9c3c 7b4f 2fbd 4374 e03c afd1 a2bc
000002a0: 20fc b53c c4d9 853b ab26 ea3c 2701 20bd
000002b0: abf3 f3bc 7411 07bc f058 5b3d 39fb 503d
000002c0: 6810 7ebc db24 eb3c 0818 c93b af70 31bb
000002d0: 5191 a33c 1708 0e3d 2cff 693b cefd b13c
000002e0: a22c 5ebd 314e 273b 11b4 c0bc f597 773c
000002f0: 0518 b13c 02a4 8d3d cdb3 9b3c 9759 a2bc
00000300: 7c6e 193d 285d b43b 681d 753c cbe1 e53c
00000310: 8875 e5bc 6965 183c e5d8 10bc 41b7 c8bc
00000320: 5de7 1c3d 892b ff3b 7fea 363c 6c98 a839
00000330: 1ba1 6dbc 1bef 363c eb34 03bb 9e57 f13c
00000340: 3bb3 0abd 6fe9 23bd bd46 cbbc 68b4 583d
00000350: 43cd 78bd 8c6e 40bc cd60 82bc 4fe8 3abd
00000360: ca9c 1d3d e480 0abd 67de 4dbb 8cba 983c
00000370: 1228 a8ba 28a9 3b3b d7b1 c8bd f381 073c
00000380: 0661 6cbc 2efa de3a 7188 5cbd bd13 443b
00000390: 1885 a0bc 10cb a5bb 1993 063b b56d 5a3d
000003a0: 5c2d 1d3d 952f bdbb a271 bc3c 9830 073d
000003b0: 7271 37bb a806 97ba 3708 edba a6f4 8dbb
000003c0: 447f 9b3b 6853 33ba 2d86 ae3c f6d4 5a3b
000003d0: 4c14 54bb a6d1 2cbd 7bbb bc38 91f9 afbd
000003e0: cca4 8ebd 68e0 ca3c 5386 a0bd 9402 1a3d
000003f0: 21d0 86bd 705d 09bc acab 9fbc 5358 223c
-0.07167013 0.046295032 0.046302903 0.05672455 -0.011556467 -0.029987922 -0.06528363 -0.04469554
-0.05246217 -0.02190606 -0.07954826 -0.028621085 -0.0040372405 0.05658661 0.039317995 0.01796411
-0.03593459 0.02680195 -0.034371536 0.048903864 -0.017188506 -0.030297462 0.033485647 -0.024817439
-0.029229945 -0.028781118 -0.01451077 -0.028276553 -0.005925489 0.05798561 -0.0223542 0.028988333
0.021138946 -0.024045052 0.0137311 0.094475694 0.04006019 0.009553027 0.049006484 -0.075380996
0.0065079518 0.0016921674 -0.026892439 -0.02352522 0.024750656 -0.03129983 -0.008961277 0.007308985
-0.0129166525 0.05187807 0.0422871 -0.0056310506 0.028939739 -0.014065581 -0.05054806 0.08090575
-0.0068616066 0.052407146 -0.030500362 0.06259579 0.03179395 -0.04912089 0.04659119 0.006696142
-0.002934592 0.008324434 -0.10130656 0.011101615 0.034742665 0.022682182 0.011373007 -0.012762759
0.012995233 -0.024359062 0.052934613 0.027629444 0.040988393 0.02701929 0.0434497 0.0067860484
-0.02417341 0.014071727 -0.0067315195 -0.044385273 0.012147217 -0.054496184 0.0024500068 0.0075388183
-0.028997645 0.047228627 -0.027410017 0.026273537 0.0038024618 0.03705757 0.022226006 -0.0152554475
-0.032231744 0.018309295 0.008206789 0.0043087215 -0.04389681 0.03420605 -0.0053289216 -0.048062272
0.012583752 -0.014831702 -0.018119514 -0.046381168 -0.015616974 0.040716853 -0.03310986 -0.01905684
0.008808692 -0.024770478 -0.01452222 -0.0072702775 -0.006427808 -0.021969609 0.039022345 -0.06587939
-0.024601467 -0.033625554 -0.02011189 0.04377866 -0.02266204 0.011038888 -0.04853821 -0.015828872
0.04142886 0.000116553136 -0.013146041 0.04478896 4.0044422e-05 0.059274614 0.040260438 0.015741179
0.013976692 0.043287523 -0.021250935 0.03136535 0.0152271055 0.0694847 -0.0021804455 0.015765928
0.038529214 -0.015438932 -0.028035412 0.02143116 0.008177156 0.01238415 -0.017840777 -0.05133016
-0.03149996 0.019078631 -0.088500336 0.027391864 -0.012712338 -0.032757573 0.04720676 0.017773408
-0.011323275 0.01954219 -0.0912444 0.010770341 0.01914833 -0.042800408 0.027399188 -0.019875376
0.02221495 0.0040847976 0.028582891 -0.0390636 -0.029779276 -0.008243907 0.053551614 0.051020835
-0.015506841 0.028704097 0.006136898 -0.0027075221 0.019966753 0.034675684 0.0035705073 0.021727469
-0.054241784 0.0025528783 -0.023523362 0.015111913 0.021617899 0.06916048 0.019006634 -0.01981811
0.03745888 0.005504269 0.014960624 0.028061768 -0.028010145 0.009301522 -0.008840774 -0.024501445
0.038306583 0.007787172 0.011164307 0.0003215702 -0.014503743 0.011165406 -0.0020020555 0.029460724
-0.033862334 -0.04001754 -0.024814004 0.052906424 -0.060742628 -0.011745106 -0.015915299 -0.045631703
0.038479604 -0.033814326 -0.003141308 0.01864364 -0.0012829325 0.002863476 -0.09799545 0.008270728
-0.014427429 0.0017011815 -0.05384106 0.0029918991 -0.019594714 -0.0050596073 0.0020534454 0.05332728
0.038373336 -0.0057734945 0.023003403 0.033005327 -0.0027991203 -0.001152237 -0.0018084113 -0.004332143
0.004745396 -0.00068407366 0.021304214 0.0033391095 -0.003236073 -0.042192124 8.9994595e-05 -0.08592523
-0.06965026 0.024765208 -0.0783812 0.037600115 -0.06582666 -0.008384094 -0.01949104 0.009908753
