textures/trained_models/Noise-NCA/japanese_flag_Rinv/weights.pt (torch, 16605 bytes, 3 tensors)

w1.weight f4 [96, 24, 1, 1]
0.054637413 -0.036074452 0.032856688 -0.042799927 -0.0017529591 -0.02841438 0.050375096 0.045223445
-0.034815516 0.06505502 -0.036757912 -0.029448906 0.007223513 -0.0061765127 0.0040780082 0.0055442695
0.00813151 -0.05084798 0.040227965 0.0083436705 0.03165393 -0.025104638 -0.0149285775 -0.015578152
0.025356349 -0.004575409 0.02738904 -0.065647155 -0.0065043126 -0.04031967 0.041083172 0.020727808
-0.07150193 0.022634704 -0.009542435 0.01653851 0.06541864 -0.00066981255 -0.05652837 0.015966283
0.08700309 -0.031724356 -0.019522805 -0.056475136 -0.014789173 -0.012243129 -0.04430783 -0.044348072
-0.018506095 -0.050534554 0.076879375 -0.05065886 0.0065150266 -0.045122016 -0.041775595 0.01376757
-0.023402683 -0.034997255 -0.06206914 0.040988337 -0.030186044 -0.029451545 -0.06075639 -0.027224507
-0.011619666 0.010012291 -0.0032685641 0.006757799 -0.038858023 0.032844093 -0.006599777 0.0030314126
-0.0028609724 0.029245356 -0.040153295 0.024170533 -0.04584018 0.06440591 -0.041868284 0.019414715
-0.014425343 -0.012912355 -0.016227398 0.046077847 0.010132622 0.013293168 0.0005488804 -0.0072709993
-0.04466117 -0.015154581 -0.01694721 -0.010574766 -0.007032608 0.013829621 -0.021444691 -0.005490357
-0.059585605 0.055185802 -0.05721173 0.03447349 0.005421816 0.032075185 -0.016982576 -0.0063557937
-0.040409215 0.04455832 -0.016111497 -0.02422902 0.006072693 0.020942222 -0.04405686 0.02725435
0.007846397 0.006430006 -0.043354254 0.008076083 -0.018669592 -0.028765954 -0.03060814 -0.00076667906
-0.0224278 -0.036859296 -0.047501635 -0.05938139 -0.072826244 -0.034372453 -0.006865537 0.0113288965
-0.067797795 0.00695109 -0.033025622 0.04697168 -0.0046835416 0.051573806 -0.002799958 -0.05621189
0.028118536 -0.013274006 -0.034035537 0.00032183452 -0.04539282 0.07500524 0.0033936892 0.022987077
-0.1251653 0.009893003 -0.023504525 0.04158162 -0.0020519856 0.009643878 -0.041621037 -0.0066008386
-0.021342888 -0.019531237 -0.0087866 -0.0060465937 0.060633417 0.0045758826 -0.049715586 0.048261005
0.021541119 -0.0043813726 -0.037647977 -0.0026897988 -0.06680465 0.13666385 -0.03869569 0.008772082
-0.00015622113 -0.042582374 -0.067124985 -0.049042717 -0.025953822 0.0023975389 0.013362116 0.007182725
-0.008248314 0.03097968 -0.04768116 0.036070842 0.017795144 0.05493104 -0.106067404 0.05724731
0.022570236 0.009569416 0.018130325 -0.07368793 -0.014312918 -0.0005929184 -0.04513873 -0.022685742
-0.003939367 -0.05028851 -0.040582288 -0.002731462 -0.053132016 -0.027666714 -0.031436566 0.048262827
0.04865772 -0.041594673 0.01244694 0.02005089 0.003357219 0.019678917 0.046581097 -0.008796077
0.014574263 -0.0037451442 -0.038071766 0.010665286 -0.027449468 0.024181213 0.022634184 0.010224684
0.06588209 0.07861031 0.0514066 -0.005874284 0.02412367 -0.02651016 -0.006945518 0.03750114
0.10199574 0.08349843 -0.030463059 0.022517456 0.054149806 0.0017009852 -0.009083097 -0.0133554675
0.054779552 -0.028230542 -0.031180162 0.009845272 -0.000821102 0.023626423 0.019352399 0.00020478903
-0.0038104989 0.040349312 0.019154115 -0.01231885 -0.025549885 0.06399727 0.044583645 -0.04286887
0.040665194 0.027716804 0.010864663 -0.008709443 0.022519654 -0.04450537 -0.0532399 -0.004413346
00000000: 7bcb 5f3d cec2 13bd bc94 063d fa4e 2fbd
00000010: 8cc3 e5ba 46c5 e8bc 1e56 4e3d 383c 393d
00000020: b79a 0ebd 913b 853d 778f 16bd d53e f1bc
00000030: 38b3 ec3b 5864 cabb d0a0 853b b4ac b53b
00000040: 063a 053c f945 50bd 14c6 243d e4b3 083c
00000050: 8da7 013d 3ea8 cdbc fe96 74bc 813b 7fbc
00000060: 1eb8 cf3c 50ed 95bb fb5e e03c 0472 86bd
00000070: 2122 d5bb 3d26 25bd d446 283d 5dcd a93c
00000080: 9b6f 92bd 6a6c b93c e057 1cbc c57b 873c
00000090: 35fa 853d 5c96 2fba 4b8a 67bd b9cb 823c
000000a0: ad2e b23d 66f1 01bd 4aee 9fbc 7952 67bd
000000b0: 4a4e 72bc 6897 48bc 217c 35bd 53a6 35bd
000000c0: 189a 97bc 52fd 4ebd ef72 9d3d aa7f 4fbd
000000d0: 017c d53b ddd1 38bd e31c 2bbd 6091 613c
000000e0: fcb6 bfbc 4859 0fbd 363c 7ebd 63e3 273d
000000f0: b948 f7bc 5e44 f1bc b1db 78bd ee05 dfbc
00000100: 6960 3ebc 980a 243c 6835 56bb 8770 dd3b
00000110: 9729 1fbd 8787 063d f142 d8bb aaaa 463b
00000120: 277f 3bbb f593 ef3c c877 24bd 4801 c63c
00000130: eac2 3bbd 3fe7 833d 147e 2bbd 9c0b 9f3c
00000140: 4658 6cbc 588e 53bc 52ef 84bc 20bc 3c3d
00000150: 4c03 263c 96cb 593c bde2 0f3a 9041 eebb
00000160: a2ee 36bd eb4a 78bc e0d4 8abc c941 2dbc
00000170: cb71 e6bb a295 623c c7ac afbc 74e8 b3bb
00000180: 0910 74bd 820a 623d d956 6abd 1334 0d3d
00000190: 7da9 b13b 4561 033d 0b1f 8bbc 4344 d0bb
000001a0: 2284 25bd c982 363d 42fc 83bc f07b c6bc
000001b0: 71fd c63b 068f ab3c f774 34bd 8444 df3c
000001c0: 2d8e 003c cdb2 d23b 3b94 31bd 8c51 043c
000001d0: f9f0 98bc 94a6 ebbc ecbd fabc f6fa 48ba
000001e0: 81ba b7bc c6f9 16bd 1391 42bd e739 73bd
000001f0: ed25 95bd 21ca 0cbd 4cf8 e0bb d69c 393c
00000200: 92d9 8abd f8c5 e33b e045 07bd 6065 403d
00000210: 6578 99bb 0e3f 533d 807f 37bb 703e 66bd
00000220: d858 e63c 377b 59bc d968 0bbd e6bb a839
00000230: d2ed 39bd 599c 993d a868 5e3b 654f bc3c
00000240: 552b 00be 4316 223c 908c c0bc 7d51 2a3d
00000250: 9b7a 06bb 5b01 1e3c d27a 2abd d94b d8bb
00000260: 48d7 aebc f9ff 9fbc acf5 0fbc 8122 c6bb
00000270: bf5a 783d 49f1 953b 92a2 4bbd 55ad 453d
00000280: 0077 b03c 9e91 8fbb c434 1abd 5647 30bb
00000290: e0d0 88bd 9cf1 0b3e 5f7f 1ebd c7b8 0f3c
000002a0: 4acf 23b9 db6a 2ebd d378 89bd 04e1 48bd
000002b0: 1c9d d4bc 0720 1d3b c7ec 5a3c 105d eb3b
000002c0: f023 07bc 19c9 fd3c 524d 43bd 05bf 133d
000002d0: 1fc7 913c 5fff 603d de39 d9bd 287c 6a3d
000002e0: 37e5 b83c 0ac9 1c3c 0c86 943c b3e9 96bd
000002f0: bb80 6abc 156e 1bba 64e3 38bd 73d7 b9bc
00000300: ce15 81bb 53fb 4dbd 9d39 26bd 5402 33bb
00000310: f5a0 59bd 4ea5 e2bc a1c3 00bd 3eaf 453d
00000320: 514d 473d 2d5f 2abd 40ee 4b3c c441 a43c
00000330: ca04 5c3b ae35 a13c d2cb 3e3d 6c1d 10bc
00000340: e4c8 6e3c 1871 75bb 24f1 1bbd 74bd 2e3c
00000350: b5dd e0bc ae17 c63c 536b b93c 6f85 273c
00000360: 30ed 863d 71fe a03d ba8f 523d 117d c0bb
00000370: 019f c53c d62b d9bc 3a97 e3bb cc9a 193d
00000380: 24e3 d03d 3a01 ab3d aa8d f9bc 8776 b83c
00000390: 30cc 5d3d 98f3 de3a 45d1 14bc e4d0 5abc
000003a0: 8660 603d bd43 e7bc 8a6d ffbc 104e 213c
000003b0: 393f 57ba 338c c13c ec88 9e3c a3bc 5639
000003c0: 90b9 79bb 5245 253d 17e9 9c3c 00d5 49bc
000003d0: fe4d d1bc 0011 833d 579d 363d 4597 2fbd
000003e0: 8c90 263d 5a0e e33c b301 323c 0db2 0ebc
000003f0: 237b b83c 434b 36bd 1512 5abd d49d 90bb

w1.bias f4 [96]
-0.024655739 0.036303658 0.031885505 0.055891834 0.08374325 0.045063052 0.123223335 0.060297392
-0.2286074 -0.16398169 -0.13256168 -0.06765268 -0.107389875 -0.24558236 -0.15388937 -0.11661654
0.035818994 0.13682367 0.11380377 0.07811293 -0.16177423 0.12676959 0.026801115 -0.23981073
0.028111206 -0.0048164753 -0.15129854 -0.16536401 -0.16452329 0.105027474 -0.12666167 -0.121660374
-0.06652578 0.038687773 0.10308522 0.12586717 0.14735022 -0.14460465 0.018551184 -0.22315203
0.02706074 0.09810506 0.06855296 -0.21387573 -0.15005592 0.04346494 -0.057061896 0.01520611
0.12740752 -0.054566905 0.025509348 -0.22440687 0.15600017 0.13198948 -0.11526807 -0.1711458
0.15279727 0.054562386 0.019364981 0.0128630595 -0.104550816 -0.19573064 0.09664148 -0.115809634
-0.18724321 -0.048081502 0.108869396 0.14164123 -0.076697804 -0.2753085 -0.07204481 0.0073557817
-0.08354328 0.011269356 0.04979573 -0.29804373 0.054496717 0.16554457 0.11000046 -0.009235381
-0.07078647 -0.16781332 -0.1930232 -0.13876283 0.14082621 0.0930198 -0.1102938 -0.21970865
-0.015855128 -0.13434875 0.14257433 0.026343137 -0.07427119 0.0102285305 -0.035066802 -0.15936874
00000000: d5fa c9bc 25b3 143d 609a 023d d6ee 643d
00000010: 9581 ab3d 0994 383d 845c fc3d 66fa 763d
00000020: 0f18 6abe d1ea 27be 40be 07be 7d8d 8abd
00000030: 39ef dbbd f179 7bbe 2d95 1dbe a7d4 eebd
00000040: f0b6 123d 811b 0c3e f311 e93d acf9 9f3d
00000050: 25a8 25be e3cf 013e 038e db3c f290 75be
00000060: 7949 e63c 86d3 9dbb 01ee 1abe 2f55 29be
00000070: cb78 28be a518 d73d 99b3 01be 1329 f9bd
00000080: ab3e 88bd 1277 1e3d 581e d33d 53e3 003e
00000090: fae2 163e 3e13 14be a7f8 973c f781 64be
000000a0: 7cae dd3c 4eeb c83d 7f65 8c3d 3d02 5bbe
000000b0: 42a8 19be 4b08 323d bcb9 69bd 0c23 793c
000000c0: 1e77 023e 8c81 5fbd fbf8 d03c eaca 65be
000000d0: 82be 1f3e 4028 073e aa11 ecbd d840 2fbe
000000e0: e376 1c3e cf7c 5f3d 4fa3 9e3c 95bf 523c
000000f0: bd1e d6bd 9d6d 48be f8eb c53d 9a2d edbd
00000100: afbc 3fbe 1cf1 44bd ebf6 de3d 660a 113e
00000110: bd13 9dbd 3cf5 8cbe 3b8c 93bd c508 f13b
00000120: bd18 abbd 1ba3 383c 9bf6 4b3d 3099 98be
00000130: f337 5f3d 8484 293e ec47 e13d ff4f 17bc
00000140: 7ff8 90bd 41d7 2bbe e0a7 45be d817 0ebe
00000150: bf34 103e 2a81 be3d b7e1 e1bd 4efb 60be
00000160: 9de2 81bc b892 09be 01ff 113e 90cd d73c
00000170: 7e1b 98bd 9195 273c 35a2 0fbd 8f31 23be

w2.weight f4 [12, 96, 1, 1]
-0.029586367 -0.034124702 -0.019809578 0.015432155 0.015690364 0.009369433 0.031790804 -0.015698453
0.0052719936 0.007955918 -0.003975369 -0.011192121 0.0029209876 -0.013509683 -0.036507428 -0.00094293186
-0.0513276 0.005132049 0.0015970289 0.0018632029 0.019756017 -0.010296221 0.08527189 0.016326891
0.007436996 0.09418303 0.03045755 -0.0021880432 -0.031624753 0.007211901 -0.05861463 0.007712611
-0.012888221 -0.021112263 0.04026682 -0.0011678943 0.00681147 0.010614002 -0.013159254 -0.019280372
-0.0010063065 -0.003137161 0.010371257 -0.03196882 -0.0026493322 0.011667404 -0.017658332 0.011822135
0.017143892 -0.0015585729 0.01618079 0.086145565 0.0054078936 0.004416536 -0.007302283 -0.0055449996
0.015586917 -0.01657763 0.001647179 0.008191409 0.033825062 -0.0013210236 0.0003130917 -0.036556754
-0.044548813 -0.017354624 0.017122846 0.019431911 -0.010073185 -0.045363426 -0.027239155 0.11604741
-0.018057518 -0.019074045 -0.0036178068 -0.004777303 0.028133655 0.028763384 -0.0275158 -0.08001248
0.025572743 0.012613174 0.022046408 -0.020705307 0.02117157 0.0005769474 -0.020814719 -0.03225011
0.020831391 0.014300935 0.024192324 0.016566616 0.058419343 0.0066259466 -0.0037364408 -0.015850093
-0.01833745 -0.010820435 -0.039049093 0.003775624 0.017142992 -0.0046062726 0.011605701 0.0042472547
-0.016993955 -0.045155127 -0.030415157 -0.030436678 -0.016161948 -0.023264166 0.043159183 0.0007355992
-0.006914335 -0.0019186278 0.028913088 0.026653806 -0.019347183 0.0104535865 -0.08406151 -0.053861845
-0.016280647 -0.08469537 -0.05074442 0.024537655 0.013434228 -0.0115044145 0.014955116 0.00146399
-0.022890111 0.049864214 0.034512356 0.00990664 0.01903866 -0.048812784 0.022668159 0.017574817
0.001972315 0.01577967 0.004656914 0.00039605694 -0.018133761 0.04000813 -0.013597339 0.025224118
0.019421216 -0.026210252 -0.01725076 -0.04599959 0.008256823 0.01675469 0.024901185 -0.025018524
0.006371201 -0.0039765076 -0.021811483 0.044146016 -0.0673187 0.0056731277 -0.013203445 0.01957355
0.0011770224 -0.020734971 0.0057434575 0.034716025 0.031892363 0.014938403 -0.0005516822 -0.03037939
0.011101911 -0.0069107763 0.03583359 -0.033005822 0.011914781 0.022799058 -0.0145940855 0.07198661
-0.028992437 -0.047573596 -0.04196223 -0.0009698972 0.0075023063 0.023893382 0.0011567259 -0.017785965
-0.018151628 -0.0003690377 0.031641766 -0.021842368 -0.072535574 0.0052615786 -0.024516914 -0.0058725514
-0.01845976 -0.02126748 -0.032928836 0.019308109 -0.0001712986 0.007771995 0.0006747842 -0.023297269
0.00839824 -0.045052074 0.07196205 -0.042200554 0.009928575 0.0018820893 -0.08885736 0.063387945
0.03067823 0.043841396 0.010530521 0.027447928 0.0061249575 -0.0038825227 0.070254914 0.03421266
-0.010006974 0.015832368 0.09789072 0.009923761 0.015800053 0.015942775 -0.02582066 0.0035797502
0.0522455 -0.005009339 0.032870386 0.0016346285 0.0026079614 0.050683506 -0.020387476 -0.017546812
0.004466494 0.002771031 0.012388464 0.019463269 0.008799916 -0.017743047 -0.036009207 0.006726299
0.021837186 -0.035868403 0.006301189 -0.0005262923 0.010495067 0.017537355 -0.036402177 0.0062150797
0.019624462 -0.015315324 -0.014220678 -0.010357571 0.020197138 -0.0043792487 0.020106575 -0.020090098
00000000: 1c5f f2bc 58c6 0bbd b247 a2bc 26d7 7c3c
00000010: 1489 803c 4082 193c 1337 023d 0b9a 80bc
00000020: b0c0 ac3b 8a59 023c d043 82bb 285f 37bc
00000030: 0a6e 3f3b b857 5dbc d088 15bd 162f 77ba
00000040: e43c 52bd bf2a a83b 6653 d13a b736 f43a
00000050: 5fd7 a13c 7bb1 28bc 07a3 ae3d f9bf 853c
00000060: 0bb2 f33b 08e3 c03d 1d82 f93c 4665 0fbb
00000070: f588 01bd cf51 ec3b e515 70bd 12ba fc3b
00000080: 1e29 53bc a0f3 acbc d2ee 243d 0814 99ba
00000090: c032 df3b 5ae6 2d3c e999 57bc dff1 9dbc
000000a0: 0be6 83ba d498 4dbb 34ec 293c bdf1 02bd
000000b0: 6ba0 2dbb a428 3f3c 35a8 90bc a1b1 413c
000000c0: 5971 8c3c 0749 ccba 938d 843c 166d b03d
000000d0: b334 b13b 97b8 903b fd47 efbb d4b2 b5bb
000000e0: 4560 7f3c cfcd 87bc 28e6 d73a 4235 063c
000000f0: 268c 0a3d 3226 adba 7526 a439 89bc 15bd
00000100: d178 36bd 492b 8ebc 3645 8c3c ac2f 9f3c
00000110: 000a 25bc 00cf 39bd a624 dfbc 44aa ed3d
00000120: 5ced 93bc 2c41 9cbc ba18 6dbb ec8a 9cbb
00000130: 8d78 e63c 30a1 eb3c d168 e1bc 95dd a3bd
00000140: ee7d d13c 7ca7 4e3c ab9a b43c 2d9e a9bc
00000150: 0070 ad3c 493e 173a a183 aabc b118 04bd
00000160: 98a6 aa3c 784e 6a3c fb2e c63c b6b6 873c
00000170: 1f49 6f3d 781e d93b 13df 74bb 0ed8 81bc
00000180: 6c38 96bc 3248 31bc f1f1 1fbd 7670 773b
00000190: 766f 8c3c 37f0 96bb d725 3e3c 8e2c 8b3b
000001a0: e836 8bbc 95f4 38bd 3529 f9bc 5756 f9bc
000001b0: 1066 84bc 7e94 bebc afc7 303d 3ad5 403a
000001c0: a591 e2bb 777a fbba 24db ec3c 1559 da3c
000001d0: fc7d 9ebc 8545 2b3c 7128 acbd 3d9e 5cbd
000001e0: fe5e 85bc c474 adbd 62d9 4fbd 3103 c93c
000001f0: 3c1b 5c3c 037d 3cbc 4e06 753c 5ae3 bf3a
00000200: 0b84 bbbc 6b3e 4c3d d45c 0d3d 764f 223c
00000210: f7f6 9b3c eaef 47bd 93b2 b93c 10f9 8f3c
00000220: f441 013b 5e44 813c 0799 983b dda5 cf39
00000230: 418d 94bc 91df 233d 60c7 5ebc cfa2 ce3c
00000240: 3e19 9f3c e2b6 d6bc 7751 8dbc 116a 3cbd
00000250: a047 073c 2241 893c 92fd cb3c a6f3 ccbc
00000260: 82c5 d03b 5d4d 82bb ffad b2bc 74d2 343d
00000270: 63de 89bd a5e5 b93b 4353 58bc b658 a03c
00000280: 5146 9a3a 63dc a9bc 9d33 bc3b 6432 0e3d
00000290: 91a1 023d 34c0 743c c49e 10ba 33de f8bc
000002a0: cae4 353c cb73 e2bb 3ec6 123d 1d31 07bd
000002b0: 3736 433c 17c5 ba3c 081c 6fbc b76d 933d
000002c0: 8c81 edbc 88dc 42bd 96e0 2bbd b340 7eba
000002d0: e8d5 f53b 0ebc c33c 489d 973a dfb3 91bc
000002e0: b9b2 94bc 677b c1b9 cc9a 013d c4ee b2bc
000002f0: 888d 94bd 5269 ac3b b2d7 c8bc 886e c0bb
00000300: ec38 97bc 2339 aebc 63e0 06bd 0a2c 9e3c
00000310: 9e9e 33b9 38ac fe3b 00e4 303a ead9 bebc
00000320: c698 093c 8688 38bd d760 933d 7dda 2cbd
00000330: 76ab 223c 70b0 f63a d9fa b5bd 8ad1 813d
00000340: e950 fb3c 0993 333d 3588 2c3c 7ada e03c
00000350: deb3 c83b ec71 7ebb cfe1 8f3d 9322 0c3d
00000360: 4bf4 23bc e2b2 813c ee7a c83d 4597 223c
00000370: 1d6f 813c 6c9a 823c d985 d3bc 3e9a 6a3b
00000380: 61ff 553d 6225 a4bb 19a3 063d 0841 d63a
00000390: 55ea 2a3b 8299 4f3d a303 a7bc 55be 8fbc
000003a0: ab5b 923b 309a 353b fcf8 4a3c 6f71 9f3c
000003b0: 862d 103c de59 91bc 647e 13bd 4968 dc3b
000003c0: e6e3 b23c bfea 12bd 347a ce3b e1f6 09ba
000003d0: 80f3 2b3c 80aa 8f3c 731a 15bd dea7 cb3b
000003e0: 7bc3 a03c 20ed 7abc d9fd 68bc cdb2 29bc
000003f0: 7874 a53c cd7f 8fbb 8bb6 a43c fd93 a4bc
