textures/trained_models/Noise-NCA/japanese_flag/weights.pt (torch, 25821 bytes, 3 tensors)

w1.weight f4 [96, 48, 1, 1]
-0.036443096 -0.085426874 0.048657168 0.012845352 -0.06826919 -0.020269398 -0.085485764 -0.007975895
-0.035457082 -0.00090392545 -0.09140003 0.005368656 0.049918026 -0.00831711 0.03392438 -0.030052507
-0.086931944 -0.04586887 -0.00039420294 0.027314615 -0.001590267 0.003334195 -0.01935438 0.029212182
0.083266154 -0.045424785 0.030887306 0.11702267 -0.096249945 0.026135067 -0.0757983 0.037771706
0.092018306 0.03919869 0.029625667 -0.07675668 -0.08246904 -0.0385541 0.00045902957 0.015376538
0.10447183 0.016739523 -0.08391706 -0.013228111 -0.02271277 0.06290254 -0.04256705 -0.032661747
-0.020204468 0.00028445612 -0.0022877674 0.047503393 -0.032878127 -0.016135618 0.0013680402 0.0579154
-0.031391613 -0.004899699 -0.0017417554 -0.0029070408 0.032942433 -0.012673038 -0.02017775 -0.0075048087
0.056436654 -0.0043547745 0.047081225 -0.030749036 0.02654901 0.021025302 0.027032698 -0.015457367
0.0034693943 0.0066196905 0.01878457 -0.034503043 -0.023364544 -0.020966366 0.024573006 -0.027855074
-0.057102486 -0.08687014 -0.0041260715 0.03946948 0.019981282 -0.012986644 0.036088586 0.00063576055
-0.00362015 0.050190248 0.008692611 -0.010395099 0.048620977 -0.044792324 -0.0098811705 -0.014232024
-0.064997084 -0.041381072 -0.0044789733 0.0039683688 0.024884326 -0.023800641 -0.031503297 0.01838798
0.010625011 0.010582681 -0.023336597 0.03582498 0.03467709 0.047649533 0.020813948 -0.017535333
0.017141541 -0.018969463 -0.028956579 0.011052962 -0.0053768447 0.031674825 0.023211686 -0.020998577
-0.03171992 0.022989161 -0.025230069 -0.0049740598 -0.004501761 -0.0817514 0.0016119202 0.105642326
-0.009216185 0.018874256 -0.008502348 0.024762223 -0.031889137 0.013500305 0.0117316 0.046508264
-0.024129232 0.0002867601 -0.010493615 -0.068624705 -0.08535975 0.0122565795 -0.008996244 0.10196222
0.0057812235 0.012580109 -0.032835707 -0.04738141 -0.03596043 -0.008683356 0.012921491 0.013176838
-0.076385014 0.061127584 -0.017333934 0.04035526 -0.025264936 -0.022978978 -0.064602025 0.011013071
-0.04092957 -0.021635614 0.064335644 0.037289854 0.057796743 -0.0024941314 -0.0126690995 -0.14315683
-0.010315219 0.01629027 0.004050844 -0.038306005 -0.0038265237 -0.008274156 -0.017762963 0.04608107
0.017555622 -0.031528547 0.027863652 -0.01732742 -0.061087504 0.0031295011 0.04482881 0.018093156
0.08629926 -0.0025758059 0.053588767 -0.062538706 0.054288473 -0.019435477 -0.044263907 -0.094019726
-0.096040644 0.11074905 0.049048696 0.046448797 -0.0389541 -0.033129532 -0.06783026 0.007918588
-0.030682402 -0.0719011 0.02591736 -0.03092295 -0.053187575 0.01623104 -0.018585386 0.0075436644
0.024116026 -0.020906584 0.025464429 -0.028761862 0.017866474 -0.06719871 -0.027157316 -0.03055293
0.0637662 0.035966106 -0.01944088 0.058819436 -0.015268716 -0.019848315 -0.0071619684 0.06636943
0.0970939 0.06664254 0.027922574 -0.024965597 0.013253632 0.040457357 0.025983548 -0.056289878
0.024835119 -0.046298478 -0.0129789775 -0.017970676 -0.0501258 0.034979682 0.024570169 0.037300408
-0.092371486 0.024783712 -0.023391707 0.030324763 -0.01709225 -0.0006945823 -0.053586714 0.06443397
-0.07894389 -0.010228685 0.007694522 0.031911083 -0.14462769 0.08473916 0.020764291 0.025480984
00000000: 5b45 15bd 49f4 aebd bd4c 473d 5075 523c
00000010: b8d0 8bbd 020c a6bc 2913 afbd 54ad 02bc
00000020: 723b 11bd 69f5 6cba f02f bbbd 8deb af3b
00000030: d876 4c3d 7d44 08bc 4af4 0a3d ad30 f6bc
00000040: 6009 b2bd ffe0 3bbd 06ad ceb9 e6c2 df3c
00000050: 8270 d0ba 8282 5a3b 148d 9ebc 634e ef3c
00000060: 7287 aa3d 570f 3abd 6007 fd3c 95a9 ef3d
00000070: b11e c5bd 3519 d63c 243c 9bbd 81b6 1a3d
00000080: 1874 bc3d ce8e 203d 87b1 f23c 9b32 9dbd
00000090: 87e5 a8bd e7ea 1dbd e8a9 f039 e0ed 7b3c
000000a0: 54f5 d53d 5321 893c b5dc abbd b8ba 58bc
000000b0: 2210 babc 0cd3 803d c95a 2ebd 53c8 05bd
000000c0: d783 a5bc 0e23 9539 5eee 15bb eb92 423d
000000d0: 37ab 06bd d82e 84bc d04f b33a b338 6d3d
000000e0: 7e94 00bd a78d a0bb 9d4b e4ba 0d84 3ebb
000000f0: a5ee 063d 93a2 4fbc cf4b a5bc e6ea f5bb
00000100: 1f2a 673d 7fb2 8ebb 3ed8 403d 67e5 fbbc
00000110: 4f7d d93c 413d ac3c ad73 dd3c e540 7dbc
00000120: c75e 633b fde9 d83b 19e2 993c 1053 0dbd
00000130: 0067 bfbc a8c1 abbc 544d c93c 5330 e4bc
00000140: 4ce4 69bd f9e8 b1bd ff33 87bb c0aa 213d
00000150: c9af a33c efc5 54bc a0d1 133d 2ba9 263a
00000160: 0a40 6dbb 4a94 4d3d 746b 0e3c 3550 2abc
00000170: ca26 473d 2878 37bd a2e4 21bc 6f2d 69bc
00000180: 311d 85bd 337f 29bd 5ac4 92bb 1709 823b
00000190: 37da cb3c 90f9 c2bc 9a09 01bd 64a2 963c
000001a0: 8714 2e3c fb62 2d3c 642c bfbc 37bd 123d
000001b0: 9009 0e3d 282c 433d 0382 aa3c 42a6 8fbc
000001c0: 6b6c 8c3c d965 9bbc 5936 edbc 7c17 353c
000001d0: 3e30 b0bb 76bd 013d 6f26 be3c 3505 acbc
000001e0: bfec 01bd c453 bc3c 4aaf cebc 70fd a2bb
000001f0: 8283 93bb 476d a7bd 1147 d33a 015b d83d
00000200: 7bff 16bc 2f9e 9a3c 6f4d 0bbc 25da ca3c
00000210: 2f9e 02bd 6230 5d3c e635 403c 737f 3e3d
00000220: abaa c5bc 4a58 9639 69ed 2bbc 1c8b 8cbd
00000230: 18d1 aebd d2cf 483c fb64 13bc 92d1 d03d
00000240: 6b70 bd3b cd1c 4e3c bc7e 06bd 0213 42bd
00000250: 3e4b 13bd a344 0ebc a9b4 533c aae3 573c
00000260: bf6f 9cbd eb60 7a3d e5ff 8dbc 8f4b 253d
00000270: 69f8 cebc 693e bcbc 114e 84bd 2b70 343c
00000280: c4a5 27bd 2c3d b1bc 68c2 833d 3fbd 183d
00000290: 47bc 6c3d 9574 23bb 0e92 4fbc b497 12be
000002a0: 2a01 29bc 2c73 853c f1bc 843b c2e6 1cbd
000002b0: 6ac6 7abb 5390 07bc a283 91bc 81bf 3c3d
000002c0: cfd0 8f3c 1424 01bd 5042 e43c 3cf2 8dbc
000002d0: e436 7abd 5118 4d3b 6a9e 373d 1938 943c
000002e0: abbd b03d dace 28bb e57f 5b3d 4b14 80bd
000002f0: 975d 5e3d 2637 9fbc 124e 35bd 6a8d c0bd
00000300: f5b0 c4bd 66d0 e23d 49e7 483d 1841 3e3d
00000310: 568e 1fbd d5b2 07bd 97ea 8abd f7bc 013c
00000320: a959 fbbc e240 93bd a550 d43c 2052 fdbc
00000330: 37db 59bd f5f6 843c 6140 98bc d830 f73b
00000340: f98e c53c 4944 abbc c79a d03c ff9d ebbc
00000350: b65c 923c 7a9f 89bd 0579 debc 234a fabc
00000360: da97 823d 3251 133d 7b42 9fbc a6ec 703d
00000370: a329 7abc ef98 a2bc f2ae eabb b2ec 873d
00000380: 2bd9 c63d e27b 883d e2bd e43c a784 ccbc
00000390: c325 593c 9db6 253d 73db d43c 3790 66bd
000003a0: 0573 cb3c 79a3 3dbd c7a5 54bc 3d37 93bc
000003b0: b650 4dbd db46 0f3d 6147 c93c 50c8 183d
000003c0: 432d bdbd 3607 cb3c f79f bfbc a36b f83c
000003d0: 0c05 8cbc a114 36ba be7d 5bbd f5f5 833d
000003e0: 56ad a1bd 3796 27bc 5422 fc3b 32b5 023d
000003f0: 4819 14be ba8b ad3d e019 aa3c 7fbd d03c

w1.bias f4 [96]
-0.12990178 0.04592147 0.032448348 0.13533945 -0.11197569 -0.15277493 -0.12966533 -0.0437336
-0.013494665 0.020209275 0.053128757 0.077652305 -0.02255418 0.0664036 -0.0058723544 -0.0967367
0.078111336 -0.13154343 0.038640928 -0.18396641 0.022743238 -0.08292053 0.047347065 0.06454704
0.03186799 0.033010427 -0.027653785 0.068650715 0.016290419 -0.0702275 0.10798214 0.021593172
-0.12744686 0.08469646 -0.10740213 -0.013315395 0.09340171 0.08445662 -0.024191549 0.05536786
-0.06369309 0.03164927 -0.14220643 -0.101195395 0.027550524 -0.088882364 -0.031046247 -0.017395137
-0.1853822 -0.14980543 0.054432273 0.06502502 0.05830682 -0.15698977 -0.055370845 0.055880383
-0.16639464 -0.16653752 -0.025346294 -0.1792063 0.047240913 -0.10255949 -0.12572005 -0.03126281
0.08650408 -0.14743331 -0.00075299205 0.02912506 -0.15204722 0.111026675 -0.09593786 -0.13611253
-0.062354874 0.024299528 -0.053125065 0.04963008 -0.0522012 -0.040414304 -0.028432284 -0.044044115
-0.06723025 0.03591895 0.0387069 0.03580756 -0.0791007 0.069691315 0.070944786 0.05486684
-0.058602322 0.030510018 -0.031026622 -0.010631464 -0.022604713 0.05292652 -0.0033175626 -0.13580927
00000000: f904 05be 2718 3c3d 8fe8 043d 6d96 0a3e
00000010: 8353 e5bd 0871 1cbe fdc6 04be 0122 33bd
00000020: ba18 5dbc ec8d a53c 8a9d 593d 2c08 9f3d
00000030: 8bc3 b8bc 9cfe 873d e16c c0bb e41d c6bd
00000040: d6f8 9f3d 52b3 06be f345 1e3d b161 3cbe
00000050: 0750 ba3c 3dd2 a9bd ffee 413d 3d31 843d
00000060: 0288 023d f135 073d 318a e2bc bf98 8c3d
00000070: 7c73 853c 6fd3 8fbd bd25 dd3d 2ae4 b03c
00000080: 6e81 02be 5675 ad3d a6f5 dbbd d128 5abc
00000090: 6549 bf3d 98f7 ac3d 5b2d c6bc 69c9 623d
000000a0: 8671 82bd aaa2 013d 909e 11be 883f cfbd
000000b0: a3b1 e13c f507 b6bd b354 febc 3f80 8ebc
000000c0: d5d4 3dbe 9866 19be 60f4 5e3d d62b 853d
000000d0: 22d3 6e3d edc1 20be 8acc 62bd d4e2 643d
000000e0: 5b63 2abe d088 2abe 08a3 cfbc db81 37be
000000f0: b07f 413d b60a d2bd c2bc 00be 6f0d 00bd
00000100: 0d29 b13d c2f8 16be 7164 45ba ae97 ee3c
00000110: 44b2 1bbe f461 e33d 127b c4bd 1561 0bbe
00000120: d367 7fbd ce0f c73c ab99 59bd e948 4b3d
00000130: edd0 55bd 7889 25bd d2ea e8bc 9a67 34bd
00000140: 03b0 89bd c01f 133d 208b 1e3d f3aa 123d
00000150: 8cff a1bd 52ba 8e3d 804b 913d 0dbc 603d
00000160: fd08 70bd 25f0 f93c 8b2b febc 982f 2ebc
00000170: 852d b9bc 7bc9 583d 776b 59bb 9611 0bbe

w2.weight f4 [12, 96, 1, 1]
0.051905613 0.0071041347 0.07412282 -0.013620451 -0.017031064 0.01213894 0.067713596 0.086455904
0.012127945 0.012352819 0.04870818 -0.0013388566 -0.009739495 0.021798436 -0.06644258 0.013392347
0.027986445 -0.020086708 0.04136947 0.07610953 -0.011711358 -0.048326433 -0.07624952 0.035360955
-0.045756727 0.058292817 -0.041389752 0.017973231 -0.00011816753 0.07633886 0.018444255 -0.010333013
0.06065102 0.013947459 -0.025201129 -0.06535684 0.020164749 0.05595516 -0.049104743 0.06997132
0.028131168 -0.014720797 0.025696632 -0.013135117 -0.0025927431 -0.1084175 -0.053361867 -0.04995834
0.005951505 -0.021455083 0.049286466 0.022348138 -0.00650543 -0.04005516 0.13559203 0.029082274
0.030973922 0.003641315 -0.0025896984 0.008693692 0.054806773 0.019433651 0.12087805 -0.02909928
0.014460677 -0.042015836 -0.039674424 -0.0019414569 -0.012969775 0.04394226 -0.0068447017 -0.11737005
-0.03999919 -0.012014163 0.033091538 -0.0016365087 -0.025932116 0.0917254 0.0007937911 -0.00037938383
-0.045546018 -0.07006966 0.082961395 -0.029778019 0.11135127 0.0060925973 0.025186254 -0.0073027816
-0.09348831 -0.04769067 -0.010858045 0.047788266 -0.0037823166 -0.024324987 0.021193348 -0.07805061
-0.04770532 0.013741417 -0.019425936 0.0032357536 -0.047081552 -0.014655666 -0.01618549 -0.100728355
0.004295925 -0.03211629 0.028896727 0.05424343 0.020940142 0.0079300525 0.06307885 -0.07538432
0.03039697 0.043852273 -0.049975518 0.011172144 0.021444546 0.021195723 0.04789832 -0.008880968
-0.004630348 -0.058100656 0.03500332 -0.017663177 -0.004608738 -0.02122973 0.05026869 0.06406088
0.0033434397 0.05777348 0.01598116 -0.050241336 0.033688918 0.040049974 -0.026491364 0.05561778
-0.06892098 0.0087245405 0.032763995 -0.02578725 0.012000418 -0.032754034 -0.020394813 -0.0077282535
-0.020898115 -0.09328697 0.02892567 0.010906974 0.03984163 -0.038082667 0.024073588 0.008974923
-0.058800735 0.0042339503 -0.0020576161 0.006745539 -0.057961747 0.0008651059 0.009534408 -0.01654994
0.013061073 0.026852079 0.0075804787 -0.01863205 -0.037226327 0.012076495 -0.038942806 -0.093637735
0.03899817 0.024312152 -0.06657754 0.009150773 -0.005572697 0.048505682 -0.049257707 -0.032978885
-0.008264193 -0.010071123 -0.058118846 0.030884828 0.09345675 0.0314905 -0.022987062 0.00365533
0.07543294 -0.034410957 -0.02650044 -0.0039249053 -0.05372863 0.00039581186 0.02138423 -0.0046975487
-0.009791046 0.003184215 0.0028131027 0.02651427 -0.028706355 0.024706991 0.027695507 0.037900753
0.032945972 0.021733707 0.055801883 0.00097478105 0.028008437 0.03654894 -0.026372738 -0.056035727
0.053202897 -0.0020981482 0.0031832398 -0.045934226 0.016364586 0.0015815422 0.0009856977 -0.015125795
0.013585121 0.0009774775 0.0040455773 0.0061788205 0.03870368 0.059515033 0.011226563 0.020301212
-0.03597242 0.042138867 0.0401008 -0.0046282224 0.020600641 -0.0070985965 -0.040732153 -0.0035855433
-0.011337025 0.06779383 0.060733654 -0.06671644 -0.022912081 0.046224806 -0.04248541 -0.036160458
-0.009982247 -0.050883975 0.035013936 0.029330451 -0.03009594 0.010375105 -0.00080076576 -0.048459984
-0.03619033 -0.0012632068 -0.0453437 -0.0276843 0.03286389 -0.006646033 0.051597487 -0.0062044817
00000000: fb9a 543d cdc9 e83b b4cd 973d 5028 5fbc
00000010: bb84 8bbc 68e2 463c 6dad 8a3d cb0f b13d
00000020: 4ab4 463c 7a63 4a3c 3b82 473d 937c afba
00000030: 6792 1fbc a292 b23c 0c13 88bd 936b 5b3c
00000040: d443 e53c e18c a4bc 0973 293d 50df 9b3d
00000050: ffe0 3fbc f0f1 45bd b528 9cbd a6d6 103d
00000060: 686b 3bbd 73c4 6e3d 4d88 29bd 993c 933c
00000070: b6d0 f7b8 8c57 9c3d 6818 973c cc4b 29bc
00000080: 346d 783d e283 643c 9972 cebc cfd9 85bd
00000090: 8b30 a53c 3d31 653d 0e22 49bd 204d 8f3d
000000a0: 5673 e63c 7f2f 71bc be81 d23c ac34 57bc
000000b0: 03eb 29bb ff09 debd f991 5abd 1ea1 4cbd
000000c0: d804 c33b 92c2 afbc 9be0 493d 7113 b73c
000000d0: 812b d5bb e110 24bd a3d8 0a3e f33d ee3c
000000e0: 06bd fd3c 21a3 6e3b eeb7 29bb fd6f 0e3c
000000f0: 117d 603d 5233 9f3c e98e f73d 9d61 eebc
00000100: 7aec 6c3c cc18 2cbd a681 22bd 7c78 feba
00000110: 2e7f 54bc cdfc 333d 8549 e0bb b55f f0bd
00000120: 31d6 23bd 0dd7 44bc fe8a 073d 1f80 d6ba
00000130: 976f d4bc 87da bb3d 6b16 503a 09e8 c6b9
00000140: 768e 3abd af80 8fbd aae7 a93d 08f1 f3bc
00000150: 220c e43d 69a4 c73b 6753 ce3c 2c4c efbb
00000160: cd76 bfbd 4b57 43bd f1e5 31bc a1bd 433d
00000170: bee0 77bb 3245 c7bc ac9d ad3c 00d9 9fbd
00000180: a766 43bd ae23 613c 2423 9fbc f00e 543b
00000190: 96d8 40bd 521e 70bc 6f97 84bc ab4a cebd
000001a0: d5c4 8c3b 5f8c 03bd d4b8 ec3c 5c2e 5e3d
000001b0: a98a ab3c 0ded 013c 7c2f 813d 1863 9abd
000001c0: 1103 f93c 719e 333d 21b3 4cbd 5e0b 373c
000001d0: 79ac af3c a7a2 ad3c 0731 443d 7b81 11bc
000001e0: 2dba 97bb f4fa 6dbd a45f 0f3d 5eb2 90bc
000001f0: e504 97bb f9e9 adbc 8be6 4d3d 5a32 833d
00000200: 9c1d 5b3b e2a3 6c3d ecea 823c dcc9 4dbd
00000210: 64fd 093d 710b 243d 6b04 d9bc 78cf 633d
00000220: 7126 8dbd 60f1 0e3c 8a33 063d c83f d3bc
00000230: 679d 443c 1829 06bd 0613 a7bc 4a3d fdbb
00000240: 8632 abbc 3d0d bfbd 87f5 ec3c 2ab3 323c
00000250: fa30 233d 92fc 1bbd f935 c53c 8e0b 133c
00000260: 0ad9 70bd f3bc 8a3b 12d9 06bb af09 dd3b
00000270: 4c69 6dbd 46c8 623a 3536 1c3c bd93 87bc
00000280: 1cfe 553c e4f8 db3c aa65 f83b 3ea2 98bc
00000290: a27a 18bd 7edc 453c 7e82 1fbd 24c5 bfbd
000002a0: 8cbc 1f3d 472a c73c ce59 88bd 20ed 153c
000002b0: 2c9b b6bb e5ad 463d 73c2 49bd de14 07bd
000002c0: 8a66 07bc 5a01 25bc 070e 6ebd 2e02 fd3c
000002d0: 4166 bf3d 2ffc 003d 5d4f bcbc 438e 6f3b
000002e0: 967c 9a3d 81f2 0cbd 7317 d9bc 7e9c 80bb
000002f0: 8d12 5cbd f884 cf39 fb2d af3c e5ed 99bb
00000300: a06a 20bc 43ae 503b 085c 383b 7434 d93c
00000310: 9729 ebbc 5166 ca3c b0e1 e23c d23d 1b3d
00000320: 5bf2 063d e30a b23c 8490 643d 7388 7f3a
00000330: f371 e53c 57b4 153d a40b d8bc b885 65bd
00000340: 48eb 593d 1681 09bb e79d 503b 8725 3cbd
00000350: 060f 863c c04b cf3a 8732 813a 2fd2 77bc
00000360: 2194 5e3c b41e 803a c390 843b b477 ca3b
00000370: c087 1e3d 09c6 733d 9eef 373c ba4e a63c
00000380: d157 13bd ce99 2c3d bd40 243d 58a8 97bb
00000390: adc2 a83c 589b e8bb c2d6 26bd 6ffb 6abb
000003a0: eebe 39bc 7ed7 8a3d dac3 783d a1a2 88bd
000003b0: 1eb2 bbbc 3956 3d3d 2e05 2ebd fd1c 14bd
000003c0: 948c 23bc b76b 50bd c66a 0f3d 6a46 f03c
000003d0: c38b f6bc 58fc 293c 7bea 51ba fa7d 46bd
000003e0: 503c 14bd 3092 a5ba 51ba 39bd 2fca e2bc
000003f0: 499c 063d f7c6 d9bb e357 533d f74e cbbb
