textures/trained_models/Noise-NCA/french_flag/weights.pt (torch, 25821 bytes, 3 tensors)

w1.weight f4 [96, 48, 1, 1]
-0.10882059 -0.013687208 0.0025188273 0.028611658 -0.04053694 -0.032008927 -0.040507182 0.014223416
0.025940891 0.040831238 0.06379839 0.0017067416 0.018489825 0.07364663 -0.005706419 -0.056761477
0.012374204 -0.023118587 0.007879858 0.030293496 -0.041992534 0.013330928 -0.017555272 -0.101097606
0.04084501 0.017372094 0.033933472 -0.09096976 0.006317405 -0.04819499 0.021471074 -0.029410003
0.010883582 0.0033276463 -0.03618164 0.030761471 0.03416414 0.050494142 0.0076216185 -0.07782645
-0.018469037 0.006063165 0.012766562 -0.017344102 0.04529885 0.044943273 0.022907106 0.0036605096
0.04657073 -0.103034176 7.9578174e-05 -0.032860506 -0.0174191 0.114041924 -0.033543114 -0.061662454
-0.0683165 0.021695843 -0.0442739 -0.06503598 0.026581889 0.054209076 -0.027757835 -0.07136496
0.01028908 -0.057096563 -0.10375879 -0.0015709231 0.006234624 0.01280577 0.011735604 -0.086092144
0.06935451 0.03663586 -0.009442538 -0.008608339 -0.041078445 -0.0040473016 0.07492138 -0.0056025693
0.014000747 -0.032521546 0.01631089 0.047875524 0.0005118484 0.023773013 0.025836105 0.0039708195
0.049537294 -0.06683453 -0.024748733 -0.03913854 -0.01860998 0.004505677 -0.029060455 -0.0009697583
-0.12567797 0.0024920742 -0.00044708455 -0.018238034 0.005140816 -0.030534972 -0.0073721027 0.030063268
0.04219938 0.034671344 -0.016308874 0.04972789 0.03607201 -0.12255521 0.009199806 -0.00081567024
0.0055844355 0.027816055 -0.0023934066 -0.010636668 0.054336205 -0.039805144 0.004469374 0.03447535
0.02081185 -0.014965055 -0.012638904 0.032087214 0.015942005 0.058697462 -0.042543326 0.010942252
-0.09849319 -0.053084288 0.00707725 -0.0046166424 0.05866031 0.021960968 0.027999846 0.0072958632
-0.080768846 -0.03193747 0.025702186 -0.0013537095 0.001940238 -0.11112529 -0.01922504 0.0071962327
-0.0359901 -0.035155747 -0.00047231856 -0.012003752 -0.008900295 0.027691286 -0.0108532095 -0.008874651
-0.047632203 0.033941798 0.019576361 0.016774688 0.0010141155 -0.020050002 0.023172673 0.0013859032
0.058734216 -0.02413267 0.001064932 -0.014758264 -0.024497688 -0.0074592703 0.02189873 0.02996492
0.017625302 -0.013770159 0.012269033 -0.007002497 -0.03543461 -0.002884289 -0.04224144 -0.029149385
-0.020907672 -0.008230537 0.0044830907 -0.025447184 0.030246697 0.005517818 0.012556832 -0.0013885555
-0.02777276 0.0019341297 -0.010799547 -0.0028043762 0.010208917 0.011318361 0.030058075 0.00071068597
0.042554677 -0.086962074 0.013132036 -0.03554743 -0.08712837 -0.024250004 -0.008227482 0.047979698
0.08112817 -0.05198895 0.101315916 -0.05954223 -0.0053511094 -0.03534639 0.07508273 0.008834389
0.022561273 -0.042527076 -0.00744238 -0.031694837 -0.029247528 0.038000878 0.027583607 0.072644174
0.004924903 0.041017022 -0.0056493385 -0.034470487 -0.026607877 0.0411545 -0.0070790607 0.051948074
-0.03013322 0.027894182 -0.010241185 0.00606243 -0.002079007 -0.003639264 0.016296612 -0.010317655
0.036135513 -0.009321427 -0.04973357 -0.05509397 0.021274356 -0.007490127 0.049429577 -0.026314996
-0.041336853 0.03120026 0.1063303 -0.011847805 -0.0025663462 0.03037454 0.07961913 -0.0017873129
-0.034705505 0.0010521521 -0.07580551 0.05773703 0.08548537 0.00092026126 -0.060674284 0.04704054
00000000: 54dd debd 5040 60bc e912 253b ff62 ea3c
00000010: 100a 26bd cb1b 03bd dcea 25bd 5509 693c
00000020: fe81 d43c a83e 273d bba8 823d bfb4 df3a
00000030: f977 973c 0bd4 963d e9fc babb b97e 68bd
00000040: 2cbd 4a3c 3163 bdbc 851a 013c 112a f83c
00000050: 5d00 2cbd f769 5a3c 13d0 8fbc 430c cfbd
00000060: 194d 273d ec4f 8e3c d3fd 0a3d 5b4e babd
00000070: 3c02 cf3b 1c68 45bd 1be4 af3c 3fed f0bc
00000080: 0d51 323c a414 5a3b 3333 14bd 7bff fb3c
00000090: b2ef 0b3d f2d2 4e3d c5be f93b 7963 9fbd
000000a0: 614c 97bc 84ad c63b d82a 513c 3815 8ebc
000000b0: 498b 393d 7016 383d afa7 bb3c 29e5 6f3b
000000c0: f3c0 3e3d 9503 d3bd 35e3 a638 bd98 06bd
000000d0: 80b2 8ebc d08e e93d 8164 09bd c591 7cbd
000000e0: 85e9 8bbd 7bbb b13c 8d58 35bd 9531 85bd
000000f0: 43c2 d93c 560a 5e3d 6664 e3bc cb27 92bd
00000100: 8893 283c 16de 69bd 7d7f d4bd 6fe7 cdba
00000110: d14b cc3b 4bcf 513c b146 403c 1451 b0bd
00000120: bd09 8e3d 7c0f 163d e0b4 1abc fe09 0dbc
00000130: df41 28bd 3a9f 84bb 6170 993d c295 b7bb
00000140: 6463 653c 5035 05bd 6a9e 853c 2019 443d
00000150: 912d 063a 9fbf c23c 3da6 d33c a61d 823b
00000160: 9ee7 4a3d 8be0 88bd dbbd cabc bc4f 20bd
00000170: f573 98bc 5ca4 933b 3110 eebc 6137 7eba
00000180: bab1 00be 1152 233b ac66 eab9 ee67 95bc
00000190: 4a74 a83b 7a24 fabc ae91 f1bb 3e47 f63c
000001a0: 42d9 2c3d 8a03 0e3d 309a 85bc 79af 4b3d
000001b0: 3ec0 133d 3afe fabd c8ba 163c b4d2 55ba
000001c0: a4fd b63b 7fde e33c b3da 1cbb 6b45 2ebc
000001d0: a48f 5e3d b80a 23bd d473 923b 0636 0d3d
000001e0: 9d7d aa3c fd2f 75bc 6813 4fbc e26d 033d
000001f0: cf98 823c c06c 703d e941 2ebd 2247 333c
00000200: ccb6 c9bd e96e 59bd 47e8 e73b 3447 97bb
00000210: cb45 703d 7de7 b33c ef5f e53c 2312 ef3b
00000220: 236a a5bd ddd0 02bd 648d d23c f46e b1ba
00000230: 964f fe3a a895 e3bd d57d 9dbc 60ce eb3b
00000240: 5b6a 13bd 79ff 0fbd 86a1 f7b9 63ab 44bc
00000250: 8bd2 11bc d6d8 e23c a9d1 31bc fc66 11bc
00000260: fc19 43bd 8e06 0b3d 9b5e a03c 126b 893c
00000270: 12ec 843a e73f a4bc 9ed4 bd3c 32a7 b53a
00000280: 4a93 703d e1b1 c5bc 3095 8b3a a5cc 71bc
00000290: 60af c8bc e56c f4bb f764 b33c fe78 f53c
000002a0: f062 903c 3c9c 61bc 0e04 493c 3475 e5bb
000002b0: e223 11bd 5706 3dbb 5c05 2dbd b1ca eebc
000002c0: 9146 abbc 60d9 06bc e4e6 923b 9d76 d0bc
000002d0: ecc7 f73c d0ce b43b 2cbb 4d3c 3100 b6ba
000002e0: b383 e3bc a082 fd3a 95f0 30bc a0c9 37bb
000002f0: 4d43 273c a670 393c 5a3c f63c 544d 3a3a
00000300: d04d 2e3d 2c19 b2bd c027 573c 2f9a 11bd
00000310: 5c70 b2bd f2a7 c6bc 90cc 06bc 5c86 443d
00000320: 8726 a63d 5ef2 54bd b87e cf3d 8ee2 73bd
00000330: 5c58 afbb 60c7 10bd f9c4 993d 1dbe 103c
00000340: 6bd2 b83c df30 2ebd 35df f3bb 72d2 01bd
00000350: 8398 efbc cfa6 1b3d 04f7 e13c 78c6 943d
00000360: 1561 a13b 7701 283d 161e b9bb ed30 0dbd
00000370: c3f8 d9bc 9f91 283d 77f7 e7bb 81c7 543d
00000380: f1d9 f6bc 5782 e43c a5ca 27bc 59a7 c63b
00000390: f33f 08bb b880 6ebb 7980 853c 620b 29bc
000003a0: d502 143d e6b8 18bc 6eb5 4bbd 37aa 61bd
000003b0: 8f47 ae3c bd6f f5bb ab76 4a3d 8c92 d7bc
000003c0: d550 29bd b097 ff3c b3c3 d93d 4c1d 42bc
000003d0: 2530 28bb 07d4 f83c 5b0f a33d 4544 eaba
000003e0: 5c27 0ebd 5ee8 893a eb3f 9bbd aa7d 6c3d
000003f0: f412 af3d b03d 713a 9985 78bd 95ad 403d

w1.bias f4 [96]
0.13029642 -0.044570014 0.0136819575 -0.07514618 0.0016692494 0.050084643 -0.16516717 0.07485136
-0.10407767 -0.040300008 -0.14210665 -0.027772512 0.040298115 -0.00090287515 0.11534007 -0.033837464
-0.020438626 -0.0050835656 -0.124561675 -0.05905222 0.034150284 0.038202014 -0.14651433 0.120324366
0.083312474 -0.08693164 -0.15809281 0.07027747 -0.085114874 -0.04402905 0.060501378 0.07480486
-0.103044055 0.07538852 0.042826794 -0.015211296 -0.03396955 -0.17026524 0.035197273 -0.069394834
0.07958865 0.038251154 -0.03646701 -0.067005426 -0.096065454 -0.01407227 -0.09058674 0.073995836
0.053426348 0.06964767 0.066708125 -0.13502045 0.02289074 0.10126265 -0.1592957 0.0493625
-0.14583299 0.01773488 0.101707764 -0.015678525 0.0007333179 -0.08461798 0.009756214 0.07606467
0.07683771 0.07772373 0.029939946 -0.1563569 0.061505247 -0.06557525 0.017248116 -0.14921087
-0.10049481 -0.038825292 -0.116481185 0.031262677 0.0009859107 -0.008499858 -0.035314493 0.11986432
0.083504826 -0.00945057 0.0503072 0.009620674 -0.07692591 -0.047971956 0.090195455 0.007862196
0.08841312 0.08655986 -0.05976507 -0.08883412 0.100291714 0.0001642167 0.040336084 0.06690318
00000000: 6d6c 053e 0c8f 36bd 4a2a 603c 3ee6 99bd
00000010: b7ca da3a 8e25 4d3d 9521 29be ab4b 993d
00000020: ac26 d5bd 9f11 25bd 6884 11be 2e83 e3bc
00000030: a30f 253d edae 6cba 6a37 ec3d 2799 0abd
00000040: e86e a7bc 0a94 a6bb 311a ffbd bee0 71bd
00000050: 2be1 0b3d b779 1c3d da07 16be 9f6c f63d
00000060: bb9f aa3d 3709 b2bd 15e3 21be a2ed 8f3d
00000070: b550 aebd ce57 34bd 4bd0 773d 4a33 993d
00000080: c308 d3bd 4c65 9a3d 266b 2f3d cd38 79bc
00000090: a823 0bbd 035a 2ebe 042b 103d e11e 8ebd
000000a0: 60ff a23d 3ead 1c3d 6e5e 15bd 243a 89bd
000000b0: f7bd c4bd 618f 66bc 8a85 b9bd 218b 973d
000000c0: 96d5 5a3d 70a3 8e3d 459e 883d cd42 0abe
000000d0: 5c85 bb3c cb62 cf3d 691e 23be 5530 4a3d
000000e0: 3e55 15be bd48 913c 294c d03d 4070 80bc
000000f0: 223c 403a 314c adbd 87d8 1f3c cbc7 9b3d
00000100: 175d 9d3d 9e2d 9f3d 9e44 f53c 061c 20be
00000110: edec 7b3d 514c 86bd ec4b 8d3c bcca 18be
00000120: 39d0 cdbd 4507 1fbd b08d eebd 4b0d 003d
00000130: ac39 813a fd42 0bbc eea5 10bd 6d7b f53d
00000140: 9404 ab3d 90d6 1abc ec0e 4e3d 08a0 1d3c
00000150: 558b 9dbd 3e7e 44bd 65b8 b83d 71d0 003c
00000160: f011 b53d 4c46 b13d 38cc 74bd aaee b5bd
00000170: be65 cd3d 9631 2c39 7337 253d 8904 893d

w2.weight f4 [12, 96, 1, 1]
0.06124171 -0.06898083 0.0012433857 -0.0011026263 -0.04456124 -0.018980484 -0.033434674 0.018280957
0.018268704 -0.03896963 0.007030609 -0.03390569 0.015198901 -0.00084864796 0.028524263 -0.0156075945
0.03675661 -0.015737606 0.1206692 -0.05392137 0.016242737 0.0033096483 -0.049605288 0.023730986
0.007988466 -0.0063930387 0.013848061 -0.013914488 0.0039680223 -0.01641879 -0.009204663 0.028472574
-0.014392657 0.023781752 -0.045469593 -0.046771847 -0.033318855 -0.0120784165 0.0073505966 -0.06955661
0.013175974 0.00654022 0.057395913 0.050436903 0.051278938 0.030849496 -0.07838201 0.008690896
0.02616052 0.010037694 0.00025693575 -0.0160325 -0.049830094 0.019108167 -0.0066284225 0.041990165
-0.015889887 -0.04802105 0.0153565 -0.0011037274 -0.101109244 0.014460964 -0.08516208 0.044644818
0.031499192 -0.030285247 -0.051023614 -0.08095338 0.010425057 -0.013661614 -0.010554647 -0.05004763
0.01779973 -0.029660104 -0.027540147 0.016326163 -0.0069774217 -0.004473424 -0.010639366 -0.012205555
0.0037598505 -0.038603585 -0.045875285 -0.0266049 -0.07414731 -0.01886934 0.028644904 0.054278582
0.029025748 0.010981373 0.045485254 -0.003047949 -0.019521449 -0.048631273 0.009065023 0.008381033
0.0105718365 -0.015521266 -0.010204603 -0.006754303 0.034502193 -0.019647058 0.037696376 -0.004461463
-0.016031006 0.053359166 -0.030666668 0.029326702 0.018820228 -0.020300513 0.0127838105 0.020235373
-0.057383966 -0.043724306 -0.02899795 -0.011930245 0.014540912 -0.003564019 0.018913189 0.025729317
0.04037111 -0.018760588 0.012090774 -0.0034711664 0.012675115 0.0023140078 0.010359409 0.06503494
0.050352786 0.019908214 0.0337044 -0.030500773 0.0022297865 -0.008023087 -0.03136542 -0.01842955
0.00927966 -0.012518091 -0.0037483117 -0.02383229 -0.0019467314 0.02483223 -0.025070049 0.015484112
0.044824984 0.011991913 0.0007517332 -0.011871357 0.015954755 0.021166632 -0.028359286 -0.034149542
0.0009448054 -0.0049581886 -0.009238935 -0.044447504 0.006208312 0.049737286 0.028599909 0.023496598
-0.019626709 0.044899147 -0.0244744 -0.013828889 -0.020213716 -0.0008986529 -0.018775325 -0.045385703
0.034832496 0.004183263 -0.037248455 0.0031319147 -0.04262516 0.007693439 -0.027498508 0.0005623695
0.012303203 0.023791553 0.008668169 -0.052207746 -0.036236487 -0.036354307 0.041866206 -0.07107979
-0.0031613868 0.0025347762 0.008183989 0.033995572 -0.032209452 -1.9589797e-06 -0.0022062177 -0.010819874
-0.022423089 -0.016898856 -0.008955422 -0.004572216 -0.078630604 0.012312847 0.007812982 0.00023567516
-0.121966615 0.02864894 -0.051965833 0.009244764 0.01204613 0.020826856 0.0010504297 -0.0057644034
-0.005604385 -0.0021739604 -0.034804247 -0.05029617 0.009570132 -0.045629717 0.039563995 0.0014435175
-0.0021578562 -0.009690228 0.014001871 0.054770585 0.010376322 0.03889309 0.049725074 0.014893989
0.044187788 0.013110077 0.0052474523 -0.033499308 -0.04047449 -0.02107489 -0.011829919 -0.02569629
0.017969087 -0.0068428726 -0.080726735 -0.010362983 -0.033851493 -0.0018737236 0.028006658 0.018117942
-0.042278346 0.017295795 0.0044588125 -0.0123995915 -0.018968262 0.006956863 0.026041673 -0.02772302
-0.011998491 -0.011280393 0.0093111815 -0.036467016 0.061434235 0.07225055 0.06412801 -0.031020503
00000000: 96d8 7a3d d245 8dbd 1af9 a23a 0086 90ba
00000010: d985 36bd f67c 9bbc ccf2 08bd f2c1 953c
00000020: 40a8 953c 9e9e 1fbd 0661 e63b b1e0 0abd
00000030: d004 793c cd77 5eba b7ab e93c ffb6 7fbc
00000040: 198e 163d 27ec 80bc 6a21 f73d a8dc 5cbd
00000050: 7d0f 853c afe6 583b ea2e 4bbd 7c67 c23c
00000060: 0ee2 023c b27c d1bb fae2 623c 98f9 63bc
00000070: 2f06 823b b380 86bc 28cf 16bc 513f e93c
00000080: 2ecf 6bbc f3d1 c23c 533e 3abd d693 3fbd
00000090: 5a79 08bd 8de4 45bc 46dd f03b b273 8ebd
000000a0: 0ae0 573c 584f d63b fa17 6b3d ed96 4e3d
000000b0: dd09 523d 15b8 fc3c bf86 a0bd 4364 0e3c
000000c0: 964e d63c 2475 243c 55b5 8639 9756 83bc
000000d0: a41a 4cbd bb88 9c3c 3d33 d9bb e1fd 2b3d
000000e0: 822b 82bc b8b1 44bd d499 7b3c f2aa 90ba
000000f0: 5d12 cfbd aeed 6c3c 7569 aebd 7cdd 363d
00000100: 4c05 013d c418 f8bc 23fe 50bd e3ca a5bd
00000110: dccd 2a3c f6d4 5fbc 66ed 2cbc befe 4cbd
00000120: bdd0 913c bff9 f2bc e09b e1bc 72be 853c
00000130: dba2 e4bb cd95 92bb bc50 2ebc cff9 47bc
00000140: d367 763b cb1e 1ebd b9e7 3bbd 85f2 d9bc
00000150: 8bda 97bd e093 9abc b8a8 ea3c 3853 5e3d
00000160: 68c7 ed3c 37eb 333c bf4e 3a3d 19c0 47bb
00000170: 72eb 9fbc 9631 47bd 7685 143c 9a50 093c
00000180: 7f35 2d3c e84c 7ebc 3531 27bc 3353 ddbb
00000190: 2c52 0d3d def2 a0bc 8467 1a3d 7731 92bb
000001a0: 7553 83bc 248f 5a3d aa38 fbbc 8d3e f03c
000001b0: e12c 9a3c 434d a6bc 3073 513c a7c4 a53c
000001c0: 730b 6bbd 4218 33bd 1c8d edbc 1377 43bc
000001d0: 013d 6e3c 5192 69bb d5ef 9a3c 4ac6 d23c
000001e0: 2d5c 253d ceaf 99bc 6218 463c 827c 63bb
000001f0: 49ab 4f3c 9ca6 173b 83ba 293c 0a31 853d
00000200: b93e 4e3d 8d16 a33c a00d 0a3d c2dc f9bc
00000210: 9c21 123b 4473 03bc 0779 00bd 91f9 96bc
00000220: b709 183c ae18 4dbc 3ca6 75bb ef3b c3bc
00000230: 7729 ffba f66c cb3c b45f cdbc 13b1 7d3c
00000240: 679a 373d bb79 443c f60f 453a 1580 42bc
00000250: 8cb3 823c a565 ad3c bc51 e8bc 64e0 0bbd
00000260: d1ac 773a 4d78 a2bb e75e 17bc 960e 36bd
00000270: 196f cb3b 53b9 4b3d 5b4a ea3c f07b c03c
00000280: 31c8 a0bc 2be8 373d 897e c8bc 9092 62bc
00000290: 3c97 a5bc 9393 6bba b6ce 99bc 5ce6 39bd
000002a0: 85ac 0e3d c113 893b d691 18bd cf40 4d3b
000002b0: b897 2ebd 3e19 fc3b 8d44 e1bc fa6b 133a
000002c0: 6093 493c 81e6 c23c f004 0e3c cad7 55bd
000002d0: b66c 14bd 41e8 14bd e67b 2b3d 4892 91bd
000002e0: 452f 4fbb 7d1e 263b 2316 063c f13e 0b3d
000002f0: 0fee 03bd 0477 03b6 3196 10bb d745 31bc
00000300: a0b0 b7bc 786f 8abc c3b9 12bc 87d2 95bb
00000310: 1509 a1bd d3bb 493c 0602 003c 921f 7739
00000320: a2c9 f9bd 2fb1 ea3c 20da 54bd 5a77 173c
00000330: 225d 453c 159d aa3c 92ae 893a 52e3 bcbb
00000340: fda4 b7bb 0179 0ebb e68e 0ebd 5b03 4ebd
00000350: 0bcc 1c3c 3ae6 3abd db0d 223d 6934 bd3a
00000360: d26a 0dbb c3c3 1ebc 1b68 653c 1f57 603d
00000370: 7301 2a3c 5c4e 1f3d 85ac 4b3d eb05 743c
00000380: 41fe 343d a6cb 563c d2f2 ab3b 9236 09bd
00000390: 94c8 25bd 3fa5 acbc 47d2 41bc 0781 d2bc
000003a0: e833 933c 2d3a e0bb 0f54 a5bd 80c9 29bc
000003b0: dda7 0abd bb97 f5ba 386e e53c 146c 943c
000003c0: 0f2c 2dbd e9af 8d3c 3b1b 923b a827 4bbc
000003d0: 5463 9bbc 66f6 e33b 5955 d53c 631b e3bc
000003e0: 5295 44bc 66d1 38bc ed8d 183c 705e 15bd
000003f0: 77a2 7b3d 19f8 933d 8c55 833d b61e febc
